checkpoint_critic_0.pth (torch_old, 185404 bytes, 5 tensors)

fcs1.weight f4 [256, 48]
0	0x3f4d7834	0.8026154
1	0x3e20b08f	0.15692352
2	0xbd01f6ae	-0.031729393
3	0xbd8d372f	-0.06895291
4	0x3efe9fff	0.49731442
5	0x3e5b0b32	0.2139099
6	0xbd441d87	-0.047879722
7	0xbd1ddb50	-0.03853923
8	0x3f7cbbf2	0.9872428
9	0x3fc13130	1.5093136
10	0xbe64d64a	-0.2234737
11	0x3e15c4fa	0.14625922
12	0x3ba50108	0.0050355233
13	0x3ec82cf9	0.3909681
14	0xbdefb197	-0.117037944
15	0x3de011f9	0.10940928
16	0x3fbead5f	1.4896659
17	0x400eb462	2.2297597
18	0xbd6134d8	-0.054982036
19	0x3f98bf54	1.1933389
20	0xbf1ae1be	-0.60500705
21	0x3f79b902	0.97547925
22	0xbc785b4a	-0.015158484
23	0x3f8d47d9	1.1037551
24	0x3de9a630	0.11408651
25	0xbf6fd7c9	-0.93688637
26	0xbc64ff62	-0.013976904
27	0xbf202e0a	-0.6257025
28	0xbf114a3f	-0.56753916
29	0x3e19b5f1	0.15010811
30	0xbd4e43e1	-0.050357703
31	0xbf1781cf	-0.5918245
32	0x3f9aafd5	1.208491
33	0xbf853987	-1.0408181
34	0xbe06047a	-0.13087645
35	0xbef07c2b	-0.46969733
36	0xbd5d31eb	-0.054002684
37	0x3ed57adc	0.41695297
38	0xbe1b84bb	-0.15187351
39	0xbed3f666	-0.41398925
40	0x3fec2cd1	1.8451177
41	0xbf55e56b	-0.8355319
42	0xbe000ffe	-0.125061
43	0x3d4ddfcf	0.05026227
44	0x3f0fed2f	0.5622129
45	0x3f796fc2	0.97436154
46	0xbdf1fc0b	-0.118156515
47	0x3e02295a	0.12711087
48	0xbe4d90da	-0.20074788
49	0x4003d3b2	2.0597959
50	0xbc6954fe	-0.014241455
51	0x3e0d75c7	0.1381446
52	0xbf256083	-0.6460039
53	0xbef480ad	-0.47754422
54	0xbd3df812	-0.046379156
55	0x3e57b901	0.21066667
56	0xbf0c6d8d	-0.5485466
57	0x400cfd7d	2.2029717
58	0xbe0b464a	-0.13601032
59	0xbf3c84f6	-0.7364038
60	0x3e438dc0	0.19097042
61	0xbf44b46f	-0.7683782
62	0xbe135b34	-0.1439026
63	0xbf37eeaf	-0.7184858
64	0xbf438eb2	-0.7638961
65	0x401340a0	2.3008194
66	0xbc2675c5	-0.010159914
67	0x3e784956	0.24246725
68	0x3f2a6691	0.66562754
69	0xc01d7592	-2.460301
70	0xbcebfdb9	-0.028807508
71	0x3e238726	0.15969524
72	0x40160e51	2.3446238
73	0xbf31ab5c	-0.694021
74	0x3d58220e	0.052766852
75	0xbcdc7a24	-0.02691371
76	0x3f10938d	0.56475145
77	0xbee882c8	-0.45412278
78	0x3bcd3d43	0.0062634065
79	0xbd194a32	-0.037424274
80	0x3f783e50	0.9697008
81	0xbe4e214b	-0.20129888
82	0xbdaa6c5e	-0.08321451
83	0x3eb8755e	0.36027044
84	0xbe808559	-0.25101736
85	0xbf3a06d0	-0.72666645
86	0xbd3426c0	-0.043982267
87	0x3ea3f4d1	0.32022718
88	0x3fb150cc	1.3852782
89	0x3f563e96	0.8368925
90	0xbd525419	-0.051349733
91	0xbe33fc31	-0.17576672
92	0xbf28d34c	-0.65947413
93	0xc0196cab	-2.3972576
94	0xbd939a24	-0.07207134
95	0xbe1b2770	-0.15151763
96	0x3ec76633	0.3894516
97	0xbf5346c0	-0.8252983
98	0x3da03044	0.07821706
99	0x3daed01a	0.08535786
100	0xbe299a42	-0.16562751
101	0xbfb8f4d2	-1.4449713
102	0x3d834ee8	0.064115345
103	0x3e382d41	0.17986013
104	0x3ebbcf83	0.36681756
105	0xbf8f8479	-1.1212302
106	0xbe9d5256	-0.3072688
107	0x3f6bdde4	0.92135453
108	0xbea5ceba	-0.32384282
109	0xbf82cbe7	-1.0218476
110	0xbe552dc5	-0.20818241
111	0x3f6666ec	0.90000796
112	0x3f2185e8	0.6309495
113	0xbf9b9e04	-1.2157598
114	0xbe4138f4	-0.18869382
115	0x3e24639b	0.16053621
116	0x3e157892	0.14596775
117	0xbf92bdd0	-1.1464176
118	0xbdc982f1	-0.09839428
119	0x3e8c4cb2	0.27402264
120	0x3f33b689	0.702004
121	0x3ff659dc	1.9246173
122	0xbe18bb2d	-0.14915152
123	0xbf2f3a10	-0.6844797
124	0x3e2eae46	0.17058668
125	0xbfb7215f	-1.4307059
126	0xbd8ba695	-0.068188824
127	0xbf4316f8	-0.7620692
128	0x3ddba678	0.10725111
129	0x3f408b57	0.75212616
130	0xbdfc7c60	-0.1232841
131	0xbf09b14c	-0.5378616
132	0x3eb2913c	0.3487643
133	0xbf855a3f	-1.0418166
134	0xbe0c756e	-0.13716671
135	0xbf078df7	-0.52950996
136	0x3f6c55ae	0.92318237
137	0x3eb0373a	0.34417135
138	0xbd0635f2	-0.03276629
139	0xbf3bf755	-0.73424274
140	0xbe006d72	-0.1254175
141	0xbf8e07bc	-1.109611
142	0xbc431034	-0.011905719
143	0xbf2b65f2	-0.6695243
144	0xbe826aa7	-0.25471994
145	0x3fae49d4	1.361628
146	0x3cfaf185	0.030632744
147	0x3dcd58ec	0.10026726
148	0xbf226c61	-0.63446623
149	0x401b6d49	2.4285452
150	0xbbd3f9ef	-0.0064690034
151	0x3dfddf58	0.12396115
152	0xbe89d2d5	-0.26918665
153	0x3f8357d0	1.0261173
154	0x3b8a0245	0.0042116963
155	0xbcfe8794	-0.031070508
156	0x3e007fb3	0.12548713
157	0xbfdf515c	-1.7446704
158	0x3d81dc54	0.063408524
159	0xbe139fbb	-0.14416401
160	0xbe89dd98	-0.26926875
161	0x3ff578d4	1.9177499
162	0x3cd7a1f4	0.026322342
163	0x3edfa926	0.43683738
164	0x3f571607	0.84017986
165	0xc0bfdee7	-5.9959598
166	0xbd0e5efd	-0.034758557
167	0x3ef6ef50	0.48229456
168	0xbe9516f2	-0.29119068
169	0x3c11bc8e	0.008895053
170	0xbd7906ee	-0.060797624
171	0x3e3cbc27	0.1843115
172	0x3f1a0959	0.60170513
173	0x40159947	2.3374803
174	0xbccfdabf	-0.025372861
175	0x3e6f068e	0.23342344
176	0x3f25880a	0.64660704
177	0x3f3ffd7c	0.7499616
178	0x3aa683b8	0.001270405
179	0xbef9cca5	-0.48788944
180	0xbdfdc202	-0.1239052
181	0xbfdae526	-1.710118
182	0xbdd7e473	-0.1054162
183	0xbf07c2cb	-0.53031605
184	0x3fcd0ee9	1.6020175
185	0x3ef3a0c8	0.47583604
186	0xbdc7c130	-0.097536445
187	0x3e7f3094	0.24920875
188	0xbf4f9d7b	-0.8109967
189	0xc0c0891b	-6.0167365
190	0xbde20d53	-0.11037698
191	0x3e6d40f2	0.23169306
192	0x3f4301d1	0.76174647
193	0xc003e480	-2.0608215
194	0xbcc17759	-0.02361648
195	0x3ee8a11d	0.4543542
196	0x3e64a9e5	0.22330435
197	0x3f173487	0.59064525
198	0xbdc67a9c	-0.09691355
199	0x3edbdf0a	0.42943603
200	0x3eb8827d	0.36037055
201	0xbfc26100	-1.5185852
202	0xbe20fc77	-0.15721308
203	0x3e95cb52	0.29256684
204	0xbf2254f5	-0.63410884
205	0xbf8c6fa6	-1.0971572
206	0xbe13deb8	-0.14440429
207	0x3ec35323	0.38149366
208	0x3f59ed7c	0.85128
209	0xc01924e7	-2.3928773
210	0x3da2eda9	0.07955486
211	0x3e382ab9	0.17985047
212	0xbf67f50e	-0.906083
213	0xc003e605	-2.0609143
214	0x3dfd5f6e	0.123717174
215	0x3e3f03ba	0.18653765
216	0x3b534ddc	0.0032242453
217	0xbf6fd07d	-0.936775
218	0x3d9140e1	0.07092453
219	0xbef38656	-0.47563428
220	0xbe79ea1a	-0.24405709
221	0x3f27b7f1	0.6551505
222	0x3d993997	0.074816875
223	0xbeec1d9f	-0.4611635
224	0x4045008f	3.078159
225	0xbf085ef0	-0.53269863
226	0xbcc7a596	-0.02437095
227	0x3f2dd4a4	0.6790259
228	0x3f381784	0.7191088
229	0xbf975093	-1.1821464
230	0x3d8c4602	0.068492904
231	0x3f46ff30	0.77733135
232	0x3fdc5513	1.7213463
233	0x3e61345b	0.21992628
234	0xbe14a825	-0.14517267
235	0x3dc374f6	0.09543793
236	0x3f6d9eac	0.9282024
237	0xc0082841	-2.127457
238	0xbdaed8af	-0.08537423
239	0x3d18cc19	0.037304018
240	0x3f8f9e7f	1.1220244
241	0x4012be3f	2.2928617
242	0xbdd0fde5	-0.102046765
243	0xbe7ca3dd	-0.24671884
244	0x3fc2854b	1.5196928
245	0xc01d5803	-2.4584968
246	0xbdb6c0d4	-0.08923498
247	0xbe49000b	-0.19628923
248	0x3eae65db	0.34062085
249	0x3f0aaf51	0.5417376
250	0xbcf30d3b	-0.029669395
251	0x3e6cba5c	0.23117965
252	0xbeeef6d3	-0.46672687
253	0xbe1475b9	-0.14498033
254	0xbc6942ec	-0.014237147
255	0x3e8670d6	0.26257962

fcs1.bias f4 [256]
0	0xbfccc771	-1.5998365
1	0xbdebc4a8	-0.115121186
2	0xc010d566	-2.2630248
3	0xbf2501e8	-0.64456034
4	0xbf21354a	-0.6297194
5	0xbcdbf2c5	-0.02684916
6	0xc0082bb7	-2.1276681
7	0xbe72aae3	-0.23698
8	0xbc6007e8	-0.01367376
9	0xbf7798e5	-0.96717674
10	0xc08540ff	-4.164184
11	0xbf923666	-1.1422851
12	0x3d680deb	0.0566539
13	0xbf3a81e8	-0.7285447
14	0xbfea01cf	-1.8281802
15	0xbfdbcf66	-1.7172668
16	0xbfb67cb2	-1.4256804
17	0xbf50dc31	-0.81585985
18	0xbefc1989	-0.49238232
19	0x3d46f563	0.048573863
20	0xbf82167a	-1.0163109
21	0xc0199d0a	-2.40021
22	0xbf701a15	-0.937898
23	0xbfa27b7c	-1.2693934
24	0xbe8d7320	-0.27626896
25	0xbfcc7a1f	-1.5974768
26	0x3f50bbf7	0.8153681
27	0x3f0a4e97	0.5402617
28	0xc0247619	-2.569708
29	0xc038a95a	-2.8853364
30	0xbe8d588c	-0.27606618
31	0xbfa5080e	-1.2893083
32	0x3e39f9e0	0.18161726
33	0xc095f28d	-4.6858582
34	0xbff853de	-1.9400594
35	0xbf755921	-0.95839125
36	0xc0045718	-2.0678158
37	0x3f5f670f	0.8726663
38	0xc014c3b6	-2.3244452
39	0xbfe943e7	-1.8223847
40	0xbf8e8e13	-1.1137108
41	0xbf4ed285	-0.8078998
42	0xc077e5d0	-3.8734016
43	0xbef23d3e	-0.4731235
44	0xbfbd8037	-1.4804753
45	0xbfb731c0	-1.4312057
46	0xbe0745f8	-0.13210285
47	0xbf1d8c65	-0.6154235
48	0xbfd041c9	-1.6270076
49	0xbf074812	-0.52844346
50	0xbfb3da67	-1.4051026
51	0xbf1502b7	-0.5820727
52	0xbef574a8	-0.47940564
53	0x3d8a65b0	0.067576766
54	0xbf406c2c	-0.7516506
55	0xbf656b4a	-0.89616835
56	0xbf7b6090	-0.9819422
57	0xc006a375	-2.1037266
58	0xbf5574e4	-0.83381486
59	0xbe91738e	-0.28408474
60	0xc0226987	-2.5376909
61	0xbf94c468	-1.1622438
62	0xc0540132	-3.312573
63	0xbffe9e26	-1.9892013
64	0xbfa713a2	-1.3052866
65	0xbfc97fd6	-1.5742137
66	0xbfc31045	-1.523934
67	0xbfda3141	-1.7046281
68	0xbf9a04b5	-1.2032686
69	0xbf692f62	-0.91087925
70	0xbfbf172d	-1.4928948
71	0xbf00511d	-0.5012377
72	0xc0071a88	-2.1109943
73	0xbfad8cc3	-1.3558582
74	0xbf84da3f	-1.0379103
75	0xbfccb5f9	-1.5993034
76	0xbfccef26	-1.6010482
77	0xbf1911e0	-0.597929
78	0xbfdb23c5	-1.7120291
79	0xc00bd43c	-2.1848288
80	0xc04d89c4	-3.2115335
81	0xbf8ae0ea	-1.0849888
82	0xbfe10b80	-1.7581635
83	0xbf94f894	-1.163836
84	0xbfc1eccf	-1.5150393
85	0xc00cecdf	-2.2019575
86	0x3e3d91a2	0.18512586
87	0xbfc808f8	-1.5627737
88	0xbfb9b146	-1.4507225
89	0xc0552c34	-3.330823
90	0xc0088699	-2.1332152
91	0xc076c4cf	-3.8557622
92	0xbfebf73f	-1.8434829
93	0xbfff75cc	-1.9957824
94	0xbf795925	-0.9740165
95	0x3f51e889	0.81995445
96	0x3f22509d	0.63404256
97	0x3fbed8e3	1.4909939
98	0xc011c1ea	-2.2774606
99	0xbf63555c	-0.88802123
100	0xbf4e96d6	-0.8069891
101	0xbfd420fb	-1.6572565
102	0xbf84407c	-1.0332179
103	0xbfdeaad3	-1.7395881
104	0xbd98e942	-0.074663654
105	0xbfaf4bd6	-1.3695018
106	0x3e5a973e	0.21346757
107	0xbfbd973f	-1.4811782
108	0xbfc9f6cc	-1.5778441
109	0xbff10f8f	-1.8832873
110	0xbfd5eb1b	-1.6712373
111	0xc016306d	-2.3467057
112	0xbf8113bd	-1.0084149
113	0xbe1a11bc	-0.15045828
114	0xc0129e51	-2.2909129
115	0xbf93034d	-1.1485382
116	0xbf34bc4b	-0.7059981
117	0xc03c9ed7	-2.9471948
118	0xbf035835	-0.5130647
119	0xbf8b5bac	-1.0887351
120	0xbfbb37e0	-1.4626427
121	0x3f68ea42	0.9098245
122	0xbf87d9a5	-1.0613295
123	0xbfcdbc8e	-1.6073167
124	0xbf975c88	-1.1825113
125	0xc002de1a	-2.044806
126	0xbf80b3da	-1.0054886
127	0xbf987b20	-1.1912575
128	0xc02ed0e7	-2.7315004
129	0xbfa956a4	-1.3229566
130	0xc0065e4d	-2.0995057
131	0xbf9133d9	-1.1343948
132	0x3f39b161	0.72536284
133	0xbfb98cb7	-1.4496068
134	0xc02a914c	-2.6651182
135	0xbe5e72c4	-0.21723467
136	0xbfac330b	-1.3453077
137	0xc085a8d1	-4.1768575
138	0xbf800293	-1.0000786
139	0xc00a37e1	-2.1596606
140	0xbed353fb	-0.4127501
141	0xbfad576d	-1.3542305
142	0xbf9ded7d	-1.2338101
143	0xbfa027fa	-1.25122
144	0xbf2991e9	-0.66238266
145	0xc014234f	-2.314655
146	0xbe74707a	-0.23871031
147	0xbfb5d259	-1.4204818
148	0xbfd2eb7f	-1.6478118
149	0xbf9fa0ee	-1.2470987
150	0xbf9f58f2	-1.2449019
151	0x3fad1365	1.3521544
152	0xbe5a8b82	-0.2134228
153	0xbf20313f	-0.62575144
154	0xbfce8c35	-1.6136538
155	0xc00be2a7	-2.1857088
156	0x3f2a5946	0.6654247
157	0xbefaaa48	-0.4895804
158	0xbfebcb89	-1.8421489
159	0xbf96ed24	-1.179112
160	0xbfdcaf23	-1.7240947
161	0xbea263f9	-0.31716898
162	0x3f8f9f5b	1.1220506
163	0xbfa3dbc3	-1.2801441
164	0xbf963acb	-1.1736692
165	0xbfeef1ff	-1.8667601
166	0xc00261e2	-2.0372243
167	0xbf6a0dec	-0.91427493
168	0xbfe437fb	-1.7829584
169	0xbf599176	-0.8498758
170	0xbfe1a08c	-1.762712
171	0xbe6cfbf0	-0.23142982
172	0xbf9d2ff8	-1.2280264
173	0xc03cc04c	-2.9492369
174	0xbfa912df	-1.3208884
175	0x3ede50cd	0.4342102
176	0xc0964d5d	-4.6969438
177	0xbf706c3b	-0.93915147
178	0xbf50289f	-0.8131198
179	0x3fe4fdba	1.7889931
180	0x3f26e52d	0.65193444
181	0xbfa3de17	-1.2802151
182	0xc050d95b	-3.2632663
183	0xbf18d923	-0.59706324
184	0x3f61ba8d	0.8817528
185	0xbf861952	-1.0476477
186	0xbf6e9828	-0.9320092
187	0x4035c2e0	2.8400192
188	0xbfa1b7db	-1.2634233
189	0xbf1b5f21	-0.6069203
190	0xc013c265	-2.30874
191	0xbfae5513	-1.3619713
192	0xbf102c3b	-0.5631749
193	0xbe53980e	-0.20663473
194	0xbf559bac	-0.8344066
195	0xbfeedb00	-1.8660583
196	0xc01c5f72	-2.4433255
197	0xbe0cfbde	-0.13767955
198	0xc03d46a6	-2.957437
199	0xbeca9288	-0.3956492
200	0xbeb123dc	-0.3459767
201	0xbfb48a91	-1.4104787
202	0xbfcf639a	-1.6202271
203	0xc074ec4a	-3.826922
204	0xbef82024	-0.4846202
205	0xbe9ea315	-0.30983797
206	0xbfa8cbe1	-1.3187219
207	0xbfc93f0d	-1.5722367
208	0xbf8ff531	-1.1246701
209	0xbde57466	-0.11203842
210	0xbfbe9094	-1.4887872
211	0xbf9ce673	-1.2257828
212	0xbe9d0780	-0.30669785
213	0xbff1a8d1	-1.8879644
214	0xc061b60c	-3.5267363
215	0xbf0cff91	-0.55077463
216	0xbf2f49e4	-0.68472123
217	0x3f90c3bd	1.1309735
218	0xbfc423ec	-1.5323462
219	0xbfe9df4d	-1.8271271
220	0xbf1f8840	-0.62317276
221	0xbf9f6577	-1.245284
222	0xbfc5067a	-1.5392601
223	0xbf88c03d	-1.0683666
224	0xbf613286	-0.8796772
225	0xc01a5e64	-2.4120111
226	0xbf96215c	-1.172893
227	0xbfdc80c7	-1.72268
228	0xbfa4084e	-1.2815034
229	0xbfe66760	-1.8000298
230	0xc0006f83	-2.0068061
231	0xbfcff746	-1.6247337
232	0xc00e6cb9	-2.225386
233	0xc0149945	-2.3218548
234	0xbeacbe41	-0.33738902
235	0xbfd5a0ed	-1.6689736
236	0xbf8c039e	-1.0938604
237	0xbf1f51c2	-0.6223413
238	0x3ebca5e6	0.3684532
239	0xbf952dec	-1.1654639
240	0xbfae6034	-1.3623109
241	0x3f53c7ad	0.82726556
242	0xc0065444	-2.0988932
243	0xbfe7cf45	-1.8110129
244	0xc01dda12	-2.466435
245	0xbfd4f3d2	-1.6636908
246	0xbf96d95e	-1.1785085
247	0xc00273e5	-2.0383236
248	0xc0129496	-2.290319
249	0xbfa6c629	-1.3029224
250	0xbf98bd23	-1.193272
251	0xbf01703c	-0.5056188
252	0xbfe22f04	-1.7670598
253	0xbeb2e586	-0.34940737
254	0xc0097f2e	-2.1483874
255	0xc00c4441	-2.191666

fc2.weight f4 [128, 260]
0	0xbd98ed6e	-0.07467161
1	0x3d3972fa	0.045275666
2	0xbcc063bf	-0.023485063
3	0xbd956727	-0.072950654
4	0xbc96d5d6	-0.018412512
5	0x3b7ec0bf	0.003887221
6	0xbc6dcced	-0.01451419
7	0xbe54980d	-0.20761128
8	0xbd65f809	-0.056144748
9	0xbd9546ed	-0.07288919
10	0xbda94092	-0.08264269
11	0xbd4aa482	-0.049473293
12	0xbbbd37e3	-0.0057744845
13	0x3b2efd8e	0.0026701423
14	0xbe04bda0	-0.12962961
15	0x3d7f30fc	0.062302575
16	0xbbfa173f	-0.0076321657
17	0x3ca8cc4f	0.020605234
18	0xbe0d892f	-0.13821863
19	0xbd9e912b	-0.07742532
20	0xbba58754	-0.0050515328
21	0xbdbd1e6e	-0.092343196
22	0xbcc95a8d	-0.02457931
23	0x3a3412ab	0.0006869237
24	0x3c1a536c	0.009419303
25	0xbdc7de74	-0.097592264
26	0xbdcd4eb9	-0.10024781
27	0xbd0ab05c	-0.033859596
28	0xbddd4e9b	-0.108060084
29	0xbd7ad403	-0.061237346
30	0x3bbfb909	0.0058509153
31	0xbd4b1ec4	-0.049589887
32	0x3ce9e5ec	0.028552018
33	0x3ba34b7b	0.004983363
34	0xbdc64cf7	-0.09682649
35	0xbdf19e4c	-0.11797771
36	0x3b446649	0.0029968193
37	0x3d235b3e	0.039881937
38	0x3c4582c1	0.0120551
39	0xbcce883d	-0.025211448
40	0xbd81165b	-0.06303092
41	0xbc691d31	-0.014228151
42	0xbe82cd17	-0.25547096
43	0xbdad9e2e	-0.08477436
44	0xbbeb5755	-0.0071820416
45	0x3ca56bac	0.020192944
46	0x3d858a9f	0.065205805
47	0xbcb16a92	-0.021657262
48	0xbdf060c7	-0.11737209
49	0xbda1300f	-0.078704946
50	0x3c971db4	0.01844678
51	0x3c14eb92	0.009089367
52	0x3cb1c8b1	0.021702142
53	0xbe04f96a	-0.12985769
54	0x3c3370c7	0.010952181
55	0xbcfe5c14	-0.031049766
56	0xbe04f683	-0.12984662
57	0xbda6bd35	-0.08141557
58	0xbd5ccd47	-0.053906705
59	0x3d61df9b	0.055144887
60	0xbd1d36a1	-0.038382176
61	0xbdca8722	-0.09889056
62	0xbe2c9a21	-0.1685567
63	0x3d382560	0.04495752
64	0xbc4cf74a	-0.01251013
65	0xbda31011	-0.07962049
66	0x3cd46881	0.025928738
67	0xbdeba954	-0.11506906
68	0xbd714893	-0.058907103
69	0xbd79f73c	-0.061026797
70	0xbe10a9f9	-0.1412734
71	0xbd5f98e4	-0.054589167
72	0x3be12d43	0.0068718507
73	0x3bdecb3b	0.0067991293
74	0xbdaa61cb	-0.08319434
75	0xbd2ae2c2	-0.04172016
76	0x3c5ac2aa	0.013352076
77	0xbd0046d1	-0.031317536
78	0xbd4a212c	-0.04934804
79	0x3df1aeb2	0.118008986
80	0x3c9b0641	0.01892388
81	0xbd6c569f	-0.057699796
82	0x3bceea3f	0.0063145454
83	0xbd05ae78	-0.03263709
84	0xbe3e2df2	-0.18572214
85	0xbe3b9d28	-0.18321669
86	0x3d05f854	0.032707527
87	0xbd413d12	-0.04717738
88	0x3d934821	0.07191492
89	0xbca2d544	-0.019877084
90	0x3c671fb4	0.01410668
91	0xbd9fd249	-0.078037806
92	0xbdba94a9	-0.09110386
93	0x3e39c25e	0.18140551
94	0xbd7bb7a1	-0.06145442
95	0x3d286428	0.04111114
96	0xbd9cc13d	-0.07654045
97	0xbda88aed	-0.08229623
98	0x3d0701ae	0.032960586
99	0xbda219ba	-0.07915063
100	0xbdc8f082	-0.09811498
101	0x3c2bf374	0.0104950555
102	0xbc9ac354	-0.018891968
103	0xbdba08df	-0.09083723
104	0xbbfaac14	-0.007649908
105	0xbe265ee6	-0.16247138
106	0xbe17cb5d	-0.1482367
107	0xbd7389d7	-0.059457626
108	0xbd51c9fa	-0.05121801
109	0xbde14f7c	-0.110014886
110	0xbd7adc98	-0.06124553
111	0xbd3e6e8e	-0.046492152
112	0xbd99923a	-0.07498594
113	0xbd8f3722	-0.069929376
114	0x3bc89b70	0.006122045
115	0xbdbd41af	-0.09241044
116	0xbcd44658	-0.025912449
117	0xbbd262b9	-0.00642046
118	0xbd39b9b3	-0.045343112
119	0xbdfdb451	-0.12387908
120	0x3d1bff81	0.038085464
121	0xbe2a2283	-0.16614728
122	0xbc57479d	-0.0131396325
123	0xbda0b837	-0.07847636
124	0xbdb6a864	-0.08918837
125	0xbbb7b4de	-0.005606278
126	0x3e0317af	0.12802003
127	0xbe02fadc	-0.12791008
128	0xbd678311	-0.05652148
129	0xbd2bff96	-0.041991793
130	0xbd457e71	-0.048216287
131	0xbd87624a	-0.06610544
132	0xbb0b1865	-0.0021224257
133	0xbd15f89b	-0.03661404
134	0x3c2967ab	0.010339658
135	0xbc1a64ea	-0.009423474
136	0xbd8fd66f	-0.07023322
137	0xbd1dce0d	-0.038526583
138	0xbc8db194	-0.01729659
139	0x3d2c0d20	0.042004704
140	0x3ba52aaf	0.0050404887
141	0xbc2a8890	-0.010408536
142	0xbc588a8f	-0.013216629
143	0xbd417fff	-0.047241207
144	0xbda2e8a2	-0.079545274
145	0xbbaff19f	-0.0053693797
146	0xbcdb528c	-0.02677276
147	0xbd8565a5	-0.06513528
148	0x3ca7c86e	0.020481315
149	0xbd8462e5	-0.06464175
150	0x3da0e41b	0.07856008
151	0xbd8606c9	-0.06544263
152	0xbdae2c7f	-0.08504581
153	0xbcf8ce7b	-0.030371895
154	0x3c92fa0d	0.0179415
155	0xbdd6c7ce	-0.104873285
156	0x3d92bf41	0.07165385
157	0xbd4894b6	-0.048969947
158	0xbd6e952d	-0.058247734
159	0xbd401882	-0.046898372
160	0x3b06d838	0.0020575654
161	0xbc01c6d3	-0.007920939
162	0xbcf172be	-0.029473659
163	0xbd2b5574	-0.04182954
164	0x3c435975	0.011923184
165	0x3c5a0a8d	0.01330818
166	0xbdef79fb	-0.11693188
167	0x3c530901	0.012880565
168	0x3d86d41d	0.06583426
169	0x3ce1719c	0.027519993
170	0xbd87bcff	-0.06627845
171	0x3cde0be6	0.027105283
172	0xbcaf4259	-0.021393942
173	0x3cfa7dca	0.030577559
174	0xbb033b4e	-0.0020024362
175	0x3d0b0d92	0.03394849
176	0xbd9a2773	-0.075270556
177	0xbd7f3eea	-0.06231586
178	0x3c69b583	0.014264467
179	0xbdd61303	-0.10452845
180	0xbd7164a3	-0.058933865
181	0x3baf0028	0.005340595
182	0xbe57daa4	-0.21079499
183	0xbca45a02	-0.02006245
184	0x3d2ff161	0.042954806
185	0xbdd07d53	-0.10180154
186	0xbd805fe0	-0.06268287
187	0xbd985d2a	-0.07439645
188	0xbda10465	-0.07862166
189	0x3d1aff87	0.037841346
190	0xbe0c6570	-0.1371057
191	0xbda5a5b0	-0.08088243
192	0x3c070c39	0.00824266
193	0xbdb7b868	-0.089707196
194	0xbde31057	-0.11087101
195	0xbd74a0ca	-0.059723653
196	0xbd98e39f	-0.0746529
197	0x3d2163a8	0.03940168
198	0xbd28e883	-0.041237365
199	0xbe23a665	-0.15981443
200	0xbe1724d4	-0.14760143
201	0xbd64939a	-0.055804826
202	0xbd9822b8	-0.07428497
203	0xbd566919	-0.052346323
204	0xbb835922	-0.004008428
205	0x3a887276	0.0010410089
206	0xbd05806a	-0.03259317
207	0xbd20f573	-0.03929658
208	0xbc823a39	-0.015896903
209	0x3d9a2063	0.075257085
210	0xbcd72f98	-0.026267812
211	0xbd1a2727	-0.037634995
212	0x3cf9d053	0.030494845
213	0xbc805717	-0.015666528
214	0xbdb403fd	-0.08789823
215	0xbd9cff70	-0.07665908
216	0xbd6f061b	-0.058355432
217	0xbdf5b932	-0.11998214
218	0xbc103202	-0.008800985
219	0xbd9ca39c	-0.076483935
220	0xbd016e85	-0.03159954
221	0x3d1dfaf0	0.03856939
222	0xbd15ac9f	-0.036541577
223	0xbe1eb2a0	-0.15497828
224	0xbe380739	-0.17971505
225	0xbd6bcdce	-0.057569318
226	0xbdf8bf10	-0.12145817
227	0xbd84e4a7	-0.064889245
228	0xbdcc02d7	-0.09961479
229	0xbc61adc4	-0.013774339
230	0xbda314a6	-0.07962923
231	0xbc96375b	-0.018336942
232	0xbd6f1e57	-0.058378544
233	0xbde81fe3	-0.11334207
234	0xba491023	-0.0007669946
235	0x3b21b098	0.0024671908
236	0xbdcf9450	-0.1013571
237	0xbd4448cc	-0.047920987
238	0x3d400c9c	0.046887025
239	0xbd2906af	-0.04126614
240	0xbd27a174	-0.040925458
241	0xbd897288	-0.06711298
242	0xbd5826ac	-0.052771255
243	0xbd22b40a	-0.03972248
244	0xbc750001	-0.014953614
245	0x3ad97418	0.0016590385
246	0xbd687bca	-0.05675868
247	0xbdad46b4	-0.08460751
248	0xbdcac09b	-0.09900018
249	0xbd45b29d	-0.048266042
250	0x3cf22d3f	0.02956259
251	0xbd997884	-0.0749369
252	0x3c7d7117	0.015468857
253	0x3d8817f0	0.06645191
254	0x3ca3cf69	0.019996362
255	0xbd78e235	-0.060762603

fc2.bias f4 [128]
0	0xbe37317c	-0.1788997
1	0xbf129856	-0.57263696
2	0xbe4a088a	-0.1972982
3	0xbe592cfb	-0.21208565
4	0xbe802ff6	-0.2503659
5	0xbf0aa77b	-0.54161805
6	0xbe18879f	-0.14895485
7	0xbcf9d7bf	-0.030498384
8	0xbf11b2d3	-0.5691349
9	0xbe44a849	-0.1920482
10	0xbe6b3412	-0.22969082
11	0x4048ef9e	3.139625
12	0xbea3d578	-0.319988
13	0xbe4cd1df	-0.20001934
14	0xbe2652c2	-0.16242507
15	0xbec96e7b	-0.39342102
16	0xbf6b52b4	-0.9192307
17	0xbe956af0	-0.2918315
18	0xbe6c934b	-0.23103063
19	0xbf40d6bb	-0.7532765
20	0xbe64e8c8	-0.22354424
21	0xbe2f9797	-0.1714767
22	0xbfa64fdb	-1.299312
23	0xbe5962ce	-0.21229097
24	0xbdfdcd76	-0.12392704
25	0xbf47c17c	-0.7802961
26	0xbf0ffe5b	-0.5624749
27	0xbe89340e	-0.26797527
28	0xbe351236	-0.17682728
29	0xbdb554f4	-0.08854094
30	0xbdda5c86	-0.10662179
31	0xbe42bd8c	-0.19017619
32	0xbe1e663e	-0.1546869
33	0xbf18fa33	-0.59756774
34	0xbe83187d	-0.2560462
35	0xbf0511b3	-0.5198013
36	0xbf985db9	-1.1903602
37	0xbe90a5a6	-0.2825138
38	0xbf9a9136	-1.2075565
39	0xbe33dfad	-0.17565794
40	0xbe3aba4f	-0.18235134
41	0xbe333087	-0.1749898
42	0xbe535442	-0.2063761
43	0xbf52ba36	-0.82315385
44	0xbec9f3f5	-0.39443937
45	0xc00bb45a	-2.1828828
46	0xbfa5c5b0	-1.2950954
47	0xbec61fa0	-0.38696003
48	0xbe4c5879	-0.19955625
49	0xbe31296a	-0.17300954
50	0x3ef1bceb	0.47214445
51	0xbe58afea	-0.21160856
52	0xbe994e82	-0.2994271
53	0xbe296489	-0.16542257
54	0xc00d918a	-2.212008
55	0xbe3b2f25	-0.18279703
56	0xbf3a8bfe	-0.7286986
57	0xbe52b353	-0.2057622
58	0xbf468979	-0.77553517
59	0xbf59d033	-0.8508331
60	0xbf7147f2	-0.94250405
61	0xbe12fd04	-0.1435433
62	0xbdda1d90	-0.1065017
63	0xbe39227e	-0.18079564
64	0xbf735c5c	-0.95062804
65	0xbf3f06d7	-0.7461981
66	0xbe927db8	-0.2861154
67	0xbe516a98	-0.20450819
68	0xbe6f4b51	-0.23368575
69	0xbdfee90c	-0.12446794
70	0xbe8de160	-0.2771101
71	0xbe17361b	-0.14766733
72	0xbe1f9e3a	-0.15587702
73	0xbf1e4d8c	-0.6183708
74	0xbd69e1a6	-0.05709996
75	0xbe32b52a	-0.17451921
76	0xbdf4715d	-0.11935685
77	0xbe3ad5f3	-0.18245678
78	0xbe010fa3	-0.12603621
79	0xbfcb90d1	-1.590357
80	0x3fe48be1	1.7855188
81	0xbd9fc9a0	-0.07802129
82	0xbfc1bad9	-1.5135146
83	0xbe3870c4	-0.18011767
84	0xc00afd3b	-2.171706
85	0xbc6fe3c0	-0.014641702
86	0xbdddf513	-0.1083776
87	0xbe33be9c	-0.1755318
88	0xc058bdb0	-3.3865776
89	0xbe5e2b1a	-0.2169613
90	0xbe1cba39	-0.15305413
91	0xbeab0502	-0.33402258
92	0xbef70f94	-0.48254073
93	0xbf053b3c	-0.5204351
94	0xbe4c187a	-0.19931212
95	0xbf57ec33	-0.84344786
96	0xbe4d5d65	-0.20055158
97	0xbe497d11	-0.19676615
98	0xbefc353a	-0.4925936
99	0xbe0af4a2	-0.13569883
100	0xbe389b60	-0.18028021
101	0xbde616b4	-0.11234799
102	0xbe37d756	-0.17953238
103	0x3fff73bd	1.9957196
104	0xbe2758a8	-0.16342413
105	0x3e4a1aa9	0.19736733
106	0xbe25429e	-0.16138694
107	0xbe841661	-0.25798324
108	0xbfe2726d	-1.769117
109	0xbfc88fcc	-1.5668883
110	0xbfa4d347	-1.2876977
111	0xbe0a6b0a	-0.13517395
112	0xbe31a1dd	-0.17346902
113	0xbf84e8af	-1.0383509
114	0xbf1f6374	-0.6226113
115	0xbfa54ade	-1.2913473
116	0xbf8aecbc	-1.0853496
117	0xbe6aef52	-0.22942856
118	0xbf9276db	-1.1442522
119	0xbecd9d39	-0.40159014
120	0xbd8b73c5	-0.06809191
121	0xbe661302	-0.22468188
122	0xbdd7667d	-0.10517595
123	0xbd53bf43	-0.051696073
124	0x3da39c3f	0.07988786
125	0xbea2d026	-0.3179943
126	0xbf17de9b	-0.59324044
127	0xbe596b75	-0.21232398

fc3.weight f4 [1, 128]
0	0x3ccd1b5c	0.02503746
1	0x3c42e362	0.011895033
2	0xbc9edcdb	-0.019392421
3	0xbcb065db	-0.021532943
4	0xbbccc9e7	-0.0062496546
5	0xbc964371	-0.018342705
6	0x3b6cacf0	0.003611382
7	0x3cdffcb8	0.027342185
8	0x3b3cc9f7	0.0028806904
9	0x3c174b4f	0.009234264
10	0x3c98a2e0	0.018632352
11	0xbb9093eb	-0.0044121644
12	0x3c8b13f2	0.016977284
13	0x3c8f9bf0	0.017530411
14	0x3b85823c	0.004074363
15	0x3cdc8e3d	0.026923293
16	0x3c3ef51d	0.011655119
17	0x3c214fcf	0.009845688
18	0x3c52e37e	0.012871621
19	0x3c2d4d44	0.010577504
20	0x3c4d6e39	0.012538486
21	0xbc5b35d4	-0.013379533
22	0xbca74f28	-0.020423487
23	0x3c9d6b64	0.019216247
24	0x3cd7ce37	0.026343448
25	0xbca3157b	-0.019907704
26	0x3c7bc713	0.015367287
27	0x3b797113	0.0038061782
28	0xbb43c3d2	-0.0029871357
29	0x3c7e5565	0.015523289
30	0xbca27ee7	-0.019835902
31	0x3aa9b6e8	0.0012948187
32	0x3c410353	0.011780578
33	0xbc17b2a1	-0.009258897
34	0x3cc9d6c9	0.02463855
35	0xbbec3b9d	-0.007209255
36	0x3ac0823f	0.0014687254
37	0x3cf301d2	0.029663954
38	0x3bda8af4	0.0066693965
39	0xba52d5cf	-0.0008042724
40	0x3ca8cdf9	0.020606028
41	0xbc5e0c13	-0.013552683
42	0x3bf9444a	0.0076070176
43	0xbbaa791e	-0.0052024266
44	0xbc698d74	-0.014254916
45	0xbbd67ca5	-0.0065456205
46	0xbad5308a	-0.0016265076
47	0xbb8e6e0b	-0.0043466142
48	0xbc1e8bfb	-0.009676929
49	0x3c306b56	0.010767778
50	0xbbc8b579	-0.006125149
51	0x3c2a22a4	0.0103842355
52	0xbcae8bb1	-0.021306844
53	0x3cd6f5ab	0.02624019
54	0xbbf628df	-0.0075121964
55	0x3bbe7ba9	0.0058130813
56	0x3c98ee12	0.018668208
57	0x3af75de8	0.0018872591
58	0xbca14cad	-0.019689882
59	0x3c89a26a	0.016801078
60	0x3c60686f	0.013696774
61	0x3cd9c60e	0.026583698
62	0x3b3e73e5	0.0029060778
63	0x3bdddf37	0.006770994
64	0xbc0c3fb2	-0.008560108
65	0x3c0fe844	0.008783404
66	0x3c2b651b	0.010461117
67	0xbbe08d92	-0.006852814
68	0x3c8bd9b2	0.017071579
69	0x3c7a2dd4	0.015269715
70	0x3cac86eb	0.021060428
71	0x3c29bba9	0.010359683
72	0x3c25ee95	0.010127683
73	0x3bceb2d5	0.0063079395
74	0x3c6fec98	0.014643811
75	0xbc23fb09	-0.010008582
76	0x3caa2ea3	0.020774191
77	0xbc14ada5	-0.009074603
78	0xbc6e45ea	-0.014543036
79	0x3b994296	0.004677127
80	0xbbf3dc6b	-0.0074420474
81	0xbc9a431e	-0.018830832
82	0xbc5147c7	-0.012773461
83	0x3b8bae59	0.004262727
84	0xbcb1e001	-0.021713259
85	0xbc876398	-0.016526982
86	0xbc5ba09f	-0.013404994
87	0xbb4489d2	-0.0029989374
88	0xbc076677	-0.008264176
89	0x3c5ce62f	0.013482614
90	0xb9dcb8c7	-0.0004209934
91	0x3b60efb0	0.0034322552
92	0xba5d8826	-0.00084507687
93	0x3cce223c	0.025162809
94	0x3c655a8e	0.013998641
95	0xbc419d45	-0.011817281
96	0xbbd4e8d9	-0.006497484
97	0x3cb2659a	0.021776963
98	0x3a4cd830	0.0007814197
99	0xbbc413c7	-0.005983803
100	0xbd011273	-0.031511735
101	0x3c299119	0.010349535
102	0x3c65ca86	0.014025336
103	0x3bc72174	0.006076986
104	0x3b70ddbc	0.0036753258
105	0xbba5a0a0	-0.0050545484
106	0x3ca973eb	0.020685157
107	0xba736bb8	-0.00092857657
108	0xbc03a656	-0.008035263
109	0xbc227ecd	-0.009917927
110	0xbc286734	-0.010278512
111	0xbbeb7c4b	-0.0071864477
112	0xbd1c8876	-0.038216077
113	0x39c03c07	0.00036665818
114	0x3c280788	0.010255702
115	0xbc365965	-0.011129712
116	0xbbfccb7e	-0.007714688
117	0x3c910e15	0.01770691
118	0xbc2b3ec1	-0.010451973
119	0x3b971acb	0.0046113483
120	0xbc932e56	-0.01796643
121	0xbcc92a17	-0.024556203
122	0xbca3c145	-0.019989619
123	0x3ca3d9a5	0.020001242
124	0x3c0414e0	0.008061618
125	0x3bba3296	0.0056823
126	0xbc3d0e03	-0.011538985
127	0xbc81cb1c	-0.01584392
