checkpoint_actor_1.pth (torch_old, 183870 bytes, 6 tensors)

fc1.weight f4 [256, 48]
1.1442345 -1.9406363 -0.22203328 -1.4231528 -1.2461519 -1.3775654 -0.21697834 -1.3698084
0.8996262 -1.2234848 0.13341716 -0.30306387 -1.308007 -1.7503783 0.19524051 -0.21233335
0.22955503 -2.5835836 -0.246862 -0.84997106 -2.1129692 -0.490196 -0.20830983 -0.7798797
2.2653575 -1.320144 0.040187728 0.36654246 1.2438338 -1.4304631 0.13498332 0.3720546
1.9518558 -0.56932926 -0.57052654 0.51970106 1.288069 -1.7486458 -0.6033751 0.5667355
0.68185747 -1.4195651 -0.20294903 0.39780295 2.1221416 -0.48519298 -0.15630096 0.4300713
-0.5527504 -0.1280684 -0.33116904 -2.224911 -0.4520219 -1.7816192 -0.29820424 -2.2010074
-0.43900797 -0.35426542 -0.25478706 -0.8992678 -0.7319661 -2.05112 -0.16560192 -0.8603676
-0.04165159 -0.28681287 0.6265261 -0.34207183 -0.5943352 -2.4256766 0.6121353 -0.3869003
1.1729859 -0.24688508 0.18470712 1.002793 0.40457395 -1.7869889 0.1808329 0.9533025
1.1063322 0.12212432 -0.2183511 0.16861251 0.7268737 -2.1592748 -0.24522443 0.10305333
1.4835219 0.39238068 0.22793134 0.08984847 0.4910851 -2.4009178 0.15713091 0.12961613
2.801036 0.71363163 -0.3659116 -0.2018202 1.0030352 -1.0387961 -0.3937054 -0.10900279
2.0143435 1.0265523 -0.114802055 -0.3445087 -0.5639509 -1.1155038 -0.14551987 -0.42656568
1.7483963 0.9861426 0.08888966 -0.25093603 -1.6046304 -0.9858811 0.07319049 -0.23612154
-0.3707511 -0.25653845 -0.07395828 -0.08564578 -1.0386057 -1.0394555 -0.0058030877 -0.109068215
-0.02620406 0.21504629 -0.04348564 -0.071707346 0.5183904 -1.0986662 0.01828693 -0.17011468
-0.10934341 0.64170134 -0.4546599 1.2806073 1.5889688 -1.0198652 -0.34805787 1.248853
1.4815744 -0.54552686 0.02528736 -1.8918211 -0.40138385 -1.5604675 0.0730361 -1.957492
1.1879443 -0.420898 -0.18832536 -0.90114725 -0.15313527 -1.2714821 -0.2107596 -0.8784567
1.4049016 -0.2188372 0.14704242 -0.349443 -0.048485372 -1.0864531 0.052951336 -0.3284627
1.3626556 2.5497687 -0.2469679 -0.5726565 0.30300415 -1.5982811 -0.21948254 -0.57536
1.3604352 1.6150268 -0.039002202 -1.2729467 0.18361457 -1.3160081 -0.0046600793 -1.3382342
1.556255 1.2456317 -0.16570574 -1.8693782 0.10776768 -0.9755887 -0.2497463 -1.8820055
-0.19266169 -1.8449359 -0.17523986 -0.71724975 -0.47001752 -1.2278965 -0.10850546 -0.7433073
0.11369758 -2.161186 0.18999541 0.6530073 -0.2790743 -1.016787 0.122805506 0.69348264
0.27231416 -1.6175234 -0.09663323 1.7823403 -0.2376817 -0.9118455 -0.05421987 1.7161452
0.8921785 0.108587734 0.03644304 0.52071035 0.3994012 -1.1909087 0.095942385 0.6410064
0.9378172 -0.042068742 0.15863082 0.18516628 0.27240863 -1.0910082 0.21272407 0.123133615
1.1771821 0.4395028 0.41736436 1.3940064 0.2957051 -0.9373557 0.47961953 1.3403567
0.11561114 1.7749878 -0.116383545 0.63505924 0.25014073 -2.1737363 -0.099214904 0.6335924
0.092088066 1.8645124 -0.07017894 0.41758946 0.18798174 -2.8289833 -0.09060102 0.41349503
00000000: 4776 923f c566 f8bf b15c 63be df29 b6bf
00000010: e881 9fbf 1054 b0bf 922f 5ebe e255 afbf
00000020: e74d 663f 269b 9cbf 829e 083e 302b 9bbe
00000030: c66c a7bf 650c e0bf 21ed 473e ea6d 59be
00000040: 7910 6b3e 6f59 25c0 64c9 7cbe b497 59bf
00000050: e33a 07c0 f8fa fabe 2c4f 55be 32a6 47bf
00000060: 9efb 1040 7bfa a8bf e39b 243d 74ab bb3e
00000070: f235 9f3f 6a19 b7bf 1139 0a3e f17d be3e
00000080: 69d6 f93f 90bf 11bf 070e 12bf 210b 053f
00000090: 72df a43f a0d3 dfbf ca76 1abf 9415 113f
000000a0: 368e 2e3f 4fb4 b5bf dfd1 4fbe d4ac cb3e
000000b0: 2bd1 0740 376b f8be 5c0d 20be 4e32 dc3e
000000c0: 0d81 0dbf 5d24 03be fd8e a9be f164 0ec0
000000d0: 6a6f e7be 190c e4bf 3aae 98be 4edd 0cc0
000000e0: a7c5 e0be 4762 b5be 7373 82be 6a36 66bf
000000f0: 2162 3bbf 8d45 03c0 8d93 29be 0d41 5cbf
00000100: dc9a 2abd 23d9 92be 0464 203f 0a24 afbe
00000110: 5a26 18bf 493e 1bc0 e6b4 1c3f cc17 c6be
00000120: 6724 963f 71cf 7cbe dd23 3d3e 855b 803f
00000130: 5124 cf3e 0dbc e4bf 422c 393e a20b 743f
00000140: 4b9c 8d3f 511c fa3d 6e97 5fbe c2a8 2c3e
00000150: 6514 3a3f 8f31 0ac0 1d1c 7bbe a00d d33d
00000160: 0ce4 bd3f 1fe6 c83e d566 693e 7a02 b83d
00000170: 826f fb3e a3a8 19c0 ede6 203e 17ba 043e
00000180: 2c44 3340 90b0 363f c458 bbbe f4a9 4ebe
00000190: 7563 803f 45f7 84bf c193 c9be db3c dfbd
000001a0: 01eb 0040 1166 833f 571d ebbd 7263 b0be
000001b0: 165f 10bf d4c8 8ebf 2903 15be d166 dabe
000001c0: 73cb df3f d773 7c3f c80b b63d b07a 80be
000001d0: 8764 cdbf b462 7cbf e5e4 953d d8c9 71be
000001e0: 17d3 bdbe 0259 83be 7077 97bd 0e67 afbd
000001f0: 08f1 84bf e10c 85bf d427 bebb 285f dfbd
00000200: e6a9 d6bc 1835 5c3e 001e 32bd 4ddb 92bd
00000210: 3cb5 043f 18a1 8cbf 79ce 953c 8b32 2ebe
00000220: 70ef dfbd 8a46 243f 2fc9 e8be f1ea a33f
00000230: 5463 cb3f f18a 82bf a434 b2be 6ada 9f3f
00000240: 3ba4 bd3f a6a7 0bbf 7027 cf3c 3227 f2bf
00000250: 2f82 cdbe 66bd c7bf f393 953d 198f fabf
00000260: 8f0e 983f f17f d7be 5dd8 40be 96b1 66bf
00000270: 7ecf 1cbe edbf a2bf 5dd1 57be 8ae2 60bf
00000280: d1d3 b33f dc16 60be 4a92 163e 31ea b2be
00000290: 9998 46bd e510 8bbf 80e3 583d 432c a8be
000002a0: 806b ae3f 692f 2340 27e5 7cbe 9e99 12bf
000002b0: 5c23 9b3e 7a94 ccbf 08c0 60be cb4a 13bf
000002c0: be22 ae3f 33b9 ce3f c6c0 1fbd ebef a2bf
000002d0: 7505 3c3e f472 a8bf 94b3 98bb 424b abbf
000002e0: 5d33 c73f dc70 9f3f c4ae 29be c947 efbf
000002f0: 4db5 dc3d 2ec0 79bf 7ebd 7fbe 8ee5 f0bf
00000300: 1b49 45be dc26 ecbf 1472 33be ae9d 37bf
00000310: 23a6 f0be b62b 9dbf 1c38 debd 6349 3ebf
00000320: 47da e83d df50 0ac0 288e 423e 7d2b 273f
00000330: d4e2 8ebe 1426 82bf 7481 fb3d 1488 313f
00000340: c36c 8b3e 020b cfbf a5e7 c5bd ba23 e43f
00000350: d562 73be b56e 69bf a815 5ebd a5aa db3f
00000360: cf65 643f 3f63 de3d 4c45 153d 464d 053f
00000370: 507e cc3e b26f 98bf 717d c43d ff18 243f
00000380: ca14 703f 4650 2cbd 1e70 223e 3b9c 3d3e
00000390: 2579 8b3e 28a6 8bbf 57d4 593e 7a2d fc3d
000003a0: e7ad 963f 8306 e13e c8b0 d53e cd6e b23f
000003b0: a966 973e 8bf6 6fbf b190 f53e cf90 ab3f
000003c0: 89c5 ec3d cd32 e33f 7f5a eebd 3e93 223f
000003d0: 7212 803e 7f1e 0bc0 2f31 cbbd 1d33 223f
000003e0: ab98 bc3d 58a8 ee3f fab9 8fbd 49ce d53e
000003f0: 497e 403e 100e 35c0 078d b9bd 9fb5 d33e

fc1.bias f4 [256]
0.32769668 -0.47739282 -0.7120666 -1.7597007 -0.70061094 -0.67235196 -0.8383734 -0.21315113
-0.8372333 -1.0041693 0.007274531 -0.9622078 0.20112048 -1.0594879 -1.2597965 -0.8467389
-0.71505904 -0.7023679 -1.5180749 -0.4231564 -0.6766664 -1.1419413 -1.2722516 -0.91435957
-0.6561018 -0.5243397 -0.9514887 -0.59968555 -0.5019935 -1.2058992 -1.0349866 -1.2119797
1.9942327 -0.93832713 -0.4704321 -1.0262542 -1.3988389 -1.001739 -1.6666087 -0.40647215
-0.8258983 -1.1533823 0.40337688 0.06550681 -1.0131543 -0.47351423 -0.8538594 0.13026391
-0.3809051 -1.2217973 -0.4797403 -0.17848776 -0.8400651 -1.0563034 -0.8990466 -1.3273941
-0.87449694 -0.26914176 -0.97548264 -1.068154 -0.5785957 -0.73858684 -0.51447916 -1.0139234
-1.115384 -0.9233711 -0.9526574 -0.16599874 -0.6840414 -0.9035016 -1.0340579 -1.1655772
-0.9534312 -1.0595214 -1.0214118 -0.6766292 -1.5820173 2.1193664 -1.321179 -1.2911439
-0.7454587 -0.7351714 -0.37155503 -0.8790732 0.059379473 -0.6335513 -0.25694862 -1.0575505
-0.43210343 -0.7805896 -0.40820318 -1.0468587 -0.84397715 -0.5712124 -0.910934 -1.1867797
-0.969695 1.4682281 -0.39136788 0.08083048 -1.424002 4.968396 -0.8881331 -1.3233348
-1.4131287 -0.7931327 -0.54320294 -0.45122015 -0.8482289 -1.4236275 -0.7786641 -1.5340757
-0.79067 -0.7873801 -0.6530964 -0.8446644 -0.6441202 -0.86508554 0.69918174 -0.65883225
-1.3439558 -1.0122113 -0.036574427 -0.87900513 -1.3056579 -0.07071142 -0.84836805 -0.56095815
-0.7111304 -0.6817318 0.017575026 -1.109679 -0.64905596 -0.4066759 0.64492416 -1.1698703
-0.85186905 -1.4625915 -0.7961593 -1.0581897 -0.6402875 -1.0759248 -0.6802213 -0.096841045
-0.7324312 -0.28477553 -1.2024823 -0.75678915 -0.6184368 -1.0656611 -0.71368796 0.21725388
-1.4707023 -0.5558381 -0.44067934 -1.0293194 -0.8865335 -0.8204767 -0.6109413 -1.4642811
-1.3893878 -0.849416 -0.5644188 -1.1016568 -0.93849796 -1.0854014 -1.2819829 -0.08449094
-1.2690525 -0.94343716 -0.12173111 -1.0429882 -0.62092453 -0.6430396 -0.5335986 -1.1376221
-0.86504173 -0.74067426 -0.23697543 -0.81723714 -0.6732592 -0.78465044 -1.0201151 -1.1306064
-0.6083009 -0.523953 -0.564387 -0.31704962 -0.5853569 -0.37912968 -0.72488 0.13781323
-0.6414912 -1.1277703 -0.9745666 -0.8715757 -1.1617475 -1.2182719 -0.5819374 -0.9685124
-1.2742469 -0.7298964 -0.4904756 -1.7550868 -1.1312597 0.49942493 -0.66378605 -0.93022424
-0.7922881 -1.1448822 -0.51772064 1.2074116 -0.12500192 -0.6592995 -0.8530048 -0.8485835
-0.9556222 -1.2374715 -0.8333937 -0.23601232 -0.33795774 -0.88355017 -0.77295786 -0.70150954
0.3370393 -0.042270556 -0.8738388 0.07700354 -1.1557142 -1.3085306 -1.4249328 -0.64408433
-1.1112744 -0.536834 -0.87325305 -0.039085872 -1.0222886 -0.10464716 -0.5540219 -1.4095726
-0.7980398 -0.59791946 1.5187292 -0.63176507 -1.0599712 0.3516322 -0.4573149 -0.69712573
-0.42232776 -0.6774592 -0.63887066 0.06967601 -0.7213947 -0.8919406 -0.5747132 -1.4250847
00000000: dcc7 a73e d56c f4be ff49 36bf df3d e1bf
00000010: 3d5b 33bf 421f 2cbf a49f 56bf 4a44 5abe
00000020: ec54 56bf 9f88 80bf 305f ee3b 4053 76bf
00000030: 87f2 4d3e 4d9d 87bf 0341 a1bf e1c3 58bf
00000040: 1c0e 37bf 62ce 33bf 4750 c2bf f5a7 d8be
00000050: 023a 2dbf 222b 92bf 24d9 a2bf 7813 6abf
00000060: 4af6 27bf 203b 06bf c394 73bf fe84 19bf
00000070: a582 00bf e85a 9abf 717a 84bf 2722 9bbf
00000080: 0443 ff3f 3536 70bf 7adc f0be 4c5c 83bf
00000090: 270d b3bf fc38 80bf 6f53 d5bf 1e1d d0be
000000a0: 126e 53bf 08a2 93bf 6a87 ce3e 6f28 863d
000000b0: 0aaf 81bf 7570 f2be 8896 5abf e763 053e
000000c0: fe05 c3be db63 9cbf 85a0 f5be 7fc5 36be
000000d0: 820e 57bf f334 87bf eb27 66bf 0de8 a9bf
000000e0: 08df 5fbf f3cc 89be 3bb9 79bf 45b9 88bf
000000f0: d91e 14bf 0714 3dbf e8b4 03bf 3ec8 81bf
00000100: e7c4 8ebf 0c62 6cbf 5be1 73bf 93fb 29be
00000110: 561d 2fbf e14b 67bf 025c 84bf a231 95bf
00000120: 1114 74bf 669e 87bf 9fbd 82bf 9237 2dbf
00000130: 8b7f cabf b3a3 0740 651c a9bf 3444 a5bf
00000140: 62d6 3ebf 3134 3cbf 763c bebe f10a 61bf
00000150: e437 733d 6b30 22bf c58e 83be d15d 87bf
00000160: a93c ddbe b8d4 47bf 0200 d1be 77ff 85bf
00000170: e30e 58bf fa3a 12bf f832 69bf 66e8 97bf
00000180: ee3d 78bf e6ee bb3f 5f61 c8be 738a a53d
00000190: b345 b6bf 1afd 9e40 b15c 63bf 0963 a9bf
000001a0: 67e1 b4bf bf0a 4bbf 590f 0bbf 5406 e7be
000001b0: 8725 59bf 6d39 b6bf 8856 47bf 985c c4bf
000001c0: 5969 4abf be91 49bf 5331 27bf ed3b 58bf
000001d0: 10e5 24bf 3f76 5dbf 93fd 323f 3ba9 28bf
000001e0: be06 acbf 2490 81bf 11cf 15bd 7b06 61bf
000001f0: cc1f a7bf 26d1 90bd a62e 59bf f49a 0fbf
00000200: a40c 36bf fa85 2ebf 80f9 8f3c f609 8ebf
00000210: 8828 26bf d337 d0be c019 253f 4fbe 95bf
00000220: 1714 5abf 3336 bbbf 19d1 4bbf c372 87bf
00000230: e2e9 23bf e7b7 89bf fc22 2ebf 9954 c6bd
00000240: 9c80 3bbf 19ce 91be f1ea 99bf efbc 41bf
00000250: e051 1ebf 9567 88bf 41b4 36bf cd77 5e3e
00000260: f93f bcbf 684b 0ebf b9a0 e1be bdc0 83bf
00000270: dcf3 62bf c30a 52bf a666 1cbf 906d bbbf
00000280: 76d7 b1bf 5473 59bf c07d 10bf 1703 8dbf
00000290: 6741 70bf 6fee 8abf 0418 a4bf 9609 adbd
000002a0: 5070 a2bf 1985 71bf 294e f9bd a380 85bf
000002b0: e9f4 1ebf 3e9e 24bf eb99 08bf 9a9d 91bf
000002c0: 6073 5dbf d49c 3dbf b0a9 72be 7436 51bf
000002d0: b75a 2cbf dade 48bf 2293 82bf b6b7 90bf
000002e0: 9cb9 1bbf c921 06bf ab7b 10bf 5454 a2be
000002f0: f3d9 15bf 491d c2be bc91 39bf e91e 0d3e
00000300: c438 24bf c75a 90bf 327d 79bf 961f 5fbf
00000310: 24b4 94bf 55f0 9bbf d9f9 14bf 6ef0 77bf
00000320: 861a a3bf 7eda 3abf 9e1f fbbe afa6 e0bf
00000330: 1ecd 90bf a0b4 ff3e e2ed 29bf 2d23 6ebf
00000340: 65d3 4abf 808b 92bf 5789 04bf 778c 9a3f
00000350: 8100 00be dac7 28bf 865e 5abf c53c 59bf
00000360: a8a3 74bf 7765 9ebf 4a59 55bf 37ad 71be
00000370: cc08 adbe 5830 62bf 91e0 45bf 2196 33bf
00000380: 6a90 ac3e e423 2dbd e6b3 5fbf 08b4 9d3d
00000390: 71ee 93bf ee7d a7bf 3364 b6bf b6e2 24bf
000003a0: 3d3e 8ebf f46d 09bf 838d 5fbf 8218 20bd
000003b0: 5ada 82bf 4051 d6bd 61d4 0dbf e06c b4bf
000003c0: 564c 4cbf 4011 19bf b865 c23f 5bbb 21bf
000003d0: 23ad 87bf 2309 b43e 2e25 eabe d576 32bf
000003e0: 583b d8be f76d 2dbf 078d 23bf 4cb2 8e3d
000003f0: 53ad 38bf 3856 64bf 6720 13bf 2d69 b6bf

fc2.weight f4 [128, 256]
0.5827355 -0.59256434 -0.42896128 -0.33429748 0.16654137 -0.06548113 -0.21036892 -0.23740281
0.262972 -1.4777915 0.5683844 0.35853574 -0.86190087 -0.2348633 0.043922152 -0.5681118
0.034843195 -0.091411434 -0.5369492 -0.096311264 -1.3373396 -0.014918502 0.04217033 -0.9491802
0.29427835 -0.11311576 0.50449896 -0.36431912 -0.3091645 0.37864265 -0.027066473 0.4336936
0.75821096 0.08097694 -0.47502136 -0.616868 0.5601092 0.38574088 -0.5975348 -2.1938987
-0.25549573 1.0875777 -0.20194107 -0.05860283 -0.2992205 -0.2630356 -0.68505496 -1.5739548
0.044001125 -0.38186646 -1.6179368 0.442525 -0.2554429 -0.033339314 -0.87827325 1.162718
-0.036719535 0.45153677 -1.562284 -0.06540941 -0.22291635 0.16561154 0.003663274 0.110599615
-0.14628917 -0.019754311 -1.5704452 -0.8409879 -0.8598223 0.21797061 0.72143114 0.036979496
-1.1413184 -0.8935632 0.20124643 -1.5605131 0.095680505 -0.60335714 0.5830802 0.24926592
-1.0478778 0.94021106 -0.5056646 -0.037830673 0.7961407 0.45446914 -1.0319202 -0.40921214
-0.23888582 0.71516633 -0.11586207 0.24641202 0.19362015 -0.0036449896 0.28150374 -0.3977634
-0.47066307 0.47335967 -1.4101415 0.20558962 0.025351187 -0.6593925 -0.47105807 0.0852817
-0.0750126 0.015842823 -0.33916014 -0.5840111 0.65292203 -0.7248855 -1.2620058 0.5481243
0.13650067 0.61313325 -0.4188279 -0.47020617 0.16938451 -0.47058675 -0.62809235 -1.2153044
0.19052546 -0.5332841 0.37420994 -1.0019168 -0.4729859 -0.60739136 0.5230274 1.7869089
-0.7301411 -0.06843202 0.23494561 0.31726205 -0.9889539 0.661434 0.5994721 -0.35071772
0.45421857 0.41524923 -0.8259266 0.11568409 -0.45041636 0.5673556 0.5739402 -0.17474739
0.10933633 -0.02266798 -0.5339784 0.4607756 -0.008667302 -0.09850947 0.100703105 -0.99890673
-0.2006596 0.41067362 -0.6217917 -0.12122402 -0.14964087 -0.35058767 -0.3324328 -0.043517362
-0.18385434 -0.43273896 -0.2991842 0.47298503 -1.01047 0.70307386 0.25118944 -0.5190527
-0.79857737 -0.26952094 -0.67803955 -1.1074847 0.39111036 0.7670875 -0.6057753 0.06258991
0.39804676 0.4055148 -0.23113862 0.7020024 -0.74001896 0.079665355 -0.06560568 -0.010063275
-0.8531815 0.1899875 0.49644756 -0.9884637 -0.19940951 -0.6482337 0.55850357 -0.17294449
0.20276006 0.423791 -0.5157944 -0.07461423 -1.5038654 0.38427234 -0.1039683 0.016317245
-0.35002705 -2.2244937 -1.8365208 0.55440116 -0.23573966 -0.10947453 -1.326577 0.55212474
0.19139765 -1.0000224 -0.7064453 0.19275059 -1.1924905 0.12518312 0.06291767 0.6947968
0.77126545 -0.009455917 -0.6007373 0.09322129 -0.17138803 -0.21122046 -0.43363592 -0.064543776
0.04294697 0.34741956 0.5357371 -1.4376632 0.22652866 0.2620761 0.62960416 1.4198838
0.9609191 0.060243603 1.7526281 -0.6993202 -0.71321005 -0.26140556 0.15234575 0.42881733
0.73954374 -0.51622456 0.56832397 -2.1002429 0.3777284 -0.5786006 0.17601548 -0.3530715
0.35883808 -0.52962863 -0.3977679 -0.6121689 -0.014409869 0.6894149 -0.8514614 -0.3812385
00000000: 272e 153f 4cb2 17bf d0a0 dbbe 0a29 abbe
00000010: d289 2a3e f81a 86bd f36a 57be b919 73be
00000020: 44a4 863e 4628 bdbf a481 113f ff91 b73e
00000030: 89a5 5cbf 0180 70be b7e7 333d c66f 11bf
00000040: bdb7 0e3d eb35 bbbd 8175 09bf d73e c5bd
00000050: f22d abbf bc6c 74bc ccba 2c3d 79fd 72bf
00000060: a7ab 963e 3ca9 e7bd d826 013f 0988 babe
00000070: cf4a 9ebe 73dd c13e 82ba ddbc 160d de3e
00000080: 1d1a 423f 3dd7 a53d 0036 f3be 10eb 1dbf
00000090: 5163 0f3f d47f c53e 0af8 18bf d668 0cc0
000000a0: 56d0 82be bf35 8b3f a4c9 4ebe 8509 70bd
000000b0: 6e33 99be 9aac 86be c35f 2fbf 5a77 c9bf
000000c0: 863a 343d 0084 c3be 8e18 cfbf a392 e23e
000000d0: 69c9 82be ce8e 08bd 84d6 60bf f2d3 943f
000000e0: 3967 16bd d42f e73e ecf8 c7bf 5ef5 85bd
000000f0: 2f44 64be 1296 293e 8a13 703b 0d82 e23d
00000100: d4cc 15be cbd3 a1bc 5904 c9bf fc4a 57bf
00000110: 501d 5cbf b033 5f3e b6af 383f d077 173d
00000120: b916 92bf 8fc0 64bf 8b13 4e3e e5be c7bf
00000130: 24f4 c33d 9d75 1abf be44 153f 913f 7f3e
00000140: dc20 86bf acb1 703f 3c73 01bf 56f4 1abd
00000150: e0cf 4b3f 2eb0 e83e f615 84bf 4184 d1be
00000160: 7c9e 74be 2415 373f 1849 edbd 6f53 7c3e
00000170: 5c44 463e c7e0 6ebb 4221 903e a5a7 cbbe
00000180: c0fa f0be 335c f23e 847f b4bf 1686 523e
00000190: 4bad cf3c f2cd 28bf 862e f1be 2ca8 ae3d
000001a0: 35a0 99bd cfc8 813c 66a6 adbe c081 15bf
000001b0: e625 273f 1992 39bf 6889 a1bf e051 0c3f
000001c0: d5c6 0b3e 4df6 1c3f 9c70 d6be ddbe f0be
000001d0: 2273 2d3e bff0 f0be a9ca 20bf 188f 9bbf
000001e0: 1b19 433e 4f85 08bf 7298 bf3e cf3e 80bf
000001f0: 352b f2be 007e 1bbf 20e5 053f 6eb9 e43f
00000200: 87ea 3abf 1626 8cbd 9595 703e 2c70 a23e
00000210: 152c 7dbf bd53 293f 0177 193f 4691 b3be
00000220: 568f e83e 8c9b d43e ed6f 53bf c8eb ec3d
00000230: f99c e6be 373e 113f bfed 123f fbf0 32be
00000240: baeb df3d 33b2 b9bc cfb2 08bf c8ea eb3e
00000250: 4d01 0ebc 55bf c9bd 6e3d ce3d 5ab8 7fbf
00000260: b679 4dbe d043 d23e be2d 1fbf 4d44 f8bd
00000270: 753b 19be 3a80 b3be a234 aabe 433f 32bd
00000280: 5044 3cbe f68f ddbe ac2e 99be 182b f23e
00000290: 1557 81bf a6fc 333f e79b 803e a3e0 04bf
000002a0: 916f 4cbf a6fe 89be 0094 2dbf 0fc2 8dbf
000002b0: 9e3f c83e d95f 443f 1714 1bbf 242f 803d
000002c0: c9cc cb3e a39f cf3e 9aaf 6cbe 6eb6 333f
000002d0: e271 3dbf 9727 a33d 455c 86bd 6fe0 24bc
000002e0: 1a6a 5abf 158c 423e 602e fe3e f50b 7dbf
000002f0: 0232 4cbe a5f2 25bf 17fa 0e3f 5c18 31be
00000300: 55a0 4f3e 22fb d83e 1a0b 04bf 58cf 98bd
00000310: a97e c0bf 58bf c43e 55ed d4bd beab 853c
00000320: bf36 b3be 1b5e 0ec0 1d13 ebbf 3ced 0d3f
00000330: bd65 71be 2f34 e0bd 46cd a9bf 0c58 0d3f
00000340: bffd 433e bc00 80bf 99d9 34bf 6960 453e
00000350: 87a3 98bf 0130 003e fbda 803d 34de 313f
00000360: a771 453f feec 1abc ebc9 19bf ceea be3d
00000370: 5880 2fbe 2d4a 58be 8705 debe 872f 84bd
00000380: 29e9 2f3d fae0 b13e 1126 093f 5905 b8bf
00000390: 21f7 673e d72e 863e bd2d 213f c1be b53f
000003a0: cbfe 753f ffc1 763d 1e56 e03f a606 33bf
000003b0: ef94 36bf f3d6 85be 8600 1c3e f28d db3e
000003c0: bd52 3d3f 4b27 04bf ae7d 113f 616a 06c0
000003d0: 9e65 c13e 2b1f 14bf 673d 343e cac5 b4be
000003e0: a0b9 b73e be95 07bf 3ca8 cbbe 1ab7 1cbf
000003f0: 5f17 6cbc 7f7d 303f 60f9 59bf b131 c3be

fc2.bias f4 [128]
-0.76964873 -0.76920164 -0.3910163 -1.2891605 -0.24848215 -0.76065314 0.22723328 -1.1508731
-0.35015982 -0.35474133 -1.5204738 -0.024081051 -0.6274365 -0.19210294 -0.5228373 -0.685476
-0.71132743 0.04199303 -0.7902937 -1.359686 0.6183083 -0.11874865 -0.91282785 -0.3102421
-0.84043115 -0.5797976 -0.6258714 -1.3490032 -0.7126112 -0.6306075 -0.49908662 -0.3770899
-0.9404326 -0.2080502 -0.91197205 -0.49762478 -1.5933836 -1.3886795 -0.3629804 -0.6232326
-0.9583582 -0.11637046 -0.59365296 0.4691365 0.099025115 -1.4883703 0.5418443 -1.7341064
-0.5225499 -0.5773146 -0.1561044 -0.116452925 -0.90579486 -1.3233898 -0.9112394 -0.5106952
-0.87287396 -1.0035684 -0.88998693 -0.51394486 -0.4906134 -0.37574843 -1.6687945 -1.0080748
-0.780059 -0.7476963 -0.22080839 -0.10432075 -0.11785918 -0.7505802 -1.2814127 -0.04606975
-0.60102695 -1.265622 0.16415583 -1.1595008 -0.2462232 -0.26102972 -1.0907817 0.6887635
-0.3863422 0.7059917 -1.5326151 -0.7062595 -0.634784 -0.58780676 -0.27225405 -0.7853803
-0.90060574 -0.55554265 -0.8538187 -0.088967994 -0.44919944 -0.78118885 -0.03896327 -0.41108513
-0.58595353 -0.556434 0.05356519 -0.32752037 -0.16992901 -0.51744944 -0.14657898 -0.64746267
-0.31864303 -0.95509106 -0.57333964 0.08439707 -0.31756738 -1.0824459 -0.6717558 -0.4966988
-0.32626623 -0.5582166 0.01689862 -0.22422732 -1.4454448 0.04701176 -0.93594253 -1.7239766
-0.121725895 -0.7788613 -0.59272295 -0.55271417 -0.0998287 -0.3430862 0.43804267 -1.7181416
00000000: b307 45bf 66ea 44bf 4a33 c8be 3603 a5bf
00000010: 1b72 7ebe 2aba 42bf d7af 683e cf4f 93bf
00000020: 2648 b3be a8a0 b5be e39e c2bf a045 c5bc
00000030: ae9f 20bf a2b6 44be aad8 05bf 5b7b 2fbf
00000040: 8e19 36bf e200 2c3d b050 4abf 310a aebf
00000050: 7449 1e3f 7e32 f3bd 16af 69bf 0dd8 9ebe
00000060: 7f26 57bf 9e6d 14bf 1c39 20bf 23ac acbf
00000070: b06d 36bf 7e6f 21bf 4888 ffbe ed11 c1be
00000080: 31c0 70bf 1d0b 55be 0077 69bf adc8 febe
00000090: fef3 cbbf 40c0 b1bf 91d8 b9be 2c8c 1fbf
000000a0: f756 75bf a353 eebd a4f9 17bf a932 f03e
000000b0: aecd ca3d eb82 bebf 4fb6 0a3f 33f7 ddbf
000000c0: d5c5 05bf e4ca 13bf d5d9 1fbe df7e eebd
000000d0: 2ce2 67bf d664 a9bf fc46 69bf ecbc 02bf
000000e0: ab74 5fbf ee74 80bf 2fd6 63bf e491 03bf
000000f0: ae31 fbbe 1962 c0be 0f9b d5bf 9808 81bf
00000100: f2b1 47bf 0669 3fbf 981b 62be 1ea6 d5bd
00000110: 2760 f1bd 0626 40bf 5505 a4bf a2b3 3cbd
00000120: e7dc 19bf e7ff a1bf 7718 283e 866a 94bf
00000130: ef21 7cbe b0a5 85be bc9e 8bbf ce52 303f
00000140: a5ce c5be dfbb 343f bb2c c4bf 6ccd 34bf
00000150: 3481 22bf 817a 16bf e264 8bbe af0e 49bf
00000160: 198e 66bf 0b38 0ebf dd93 5abf da34 b6bd
00000170: 78fd e5be fefb 47bf f397 1fbd c079 d2be
00000180: 0d01 16bf 7572 0ebf 2c67 5b3d c0b0 a7be
00000190: df01 2ebe 9177 04bf cd18 16be 1dc0 25bf
000001a0: 2e25 a3be d980 74bf 63c6 12bf 5fd8 ac3d
000001b0: 3198 a2be 968d 8abf 30f8 2bbf 4e4f febe
000001c0: 5e0c a7be 48e7 0ebf fa6e 8a3c d99b 65be
000001d0: 5604 b9bf 678f 403d ee99 6fbf 44ab dcbf
000001e0: 6d4b f9bd 7463 47bf b1bc 17bf ad7e 0dbf
000001f0: fd72 ccbd ffa8 afbe 2147 e03e 10ec dbbf

fc3.weight f4 [2, 128]
0.4509323 -0.30553913 -0.1699947 0.21359062 -0.052916367 -0.50244147 0.3854943 0.31044748
0.14953771 -0.6900368 0.46953 -0.011542654 -1.0315152 0.7509516 -0.53623176 -0.635314
-0.36291412 -0.7543832 0.1284938 0.64424527 0.32953462 -0.0036688796 0.6627316 -0.17671196
-0.09557507 0.6315963 0.29991087 0.053297162 -0.6229678 -0.7509263 -0.9046136 0.71913916
0.5506056 -0.37012815 0.3346961 -0.59858423 0.13944183 0.27934372 -0.18957177 0.73651576
0.67579687 -1.2371017 0.3282593 0.5360918 -0.17833565 0.65415585 -0.21904823 0.73850423
-0.18150939 -1.4023262 -0.026942814 -0.25623032 0.47281978 0.2991423 0.027951136 0.95432216
0.45615464 0.22934803 0.6690065 -0.49796548 -0.61529464 0.37497243 0.8525252 -0.54803944
-1.0612601 -0.2429892 -0.54229766 -0.94074017 -0.5957549 -0.96030277 0.18354094 -0.029800061
0.27467236 -0.2559938 -0.8109501 0.089906804 -1.0591274 -0.054582153 0.57399917 0.42416766
-0.641866 1.2415059 0.6749364 -0.078487046 0.62106216 -1.3572075 -0.098808445 0.33437893
0.35689452 0.4569177 0.11329691 -0.5626761 -0.556072 -0.25517592 0.7507172 0.34785765
0.24986933 0.16582185 -0.074061535 -0.4895541 0.011454032 -0.464101 0.61151993 -0.14283101
-0.18541834 -0.045650426 -0.43780068 -0.4696693 -0.40785882 0.24130993 -0.73773557 -1.0042673
-1.1992456 -0.7308532 -0.13055117 -0.6038182 0.81917363 -1.1361822 0.6580245 0.6924032
-0.0198265 1.2703989 0.33664474 -0.29825595 -0.4973215 -0.7420589 0.9080837 0.37210694
0.3723098 -0.8603816 -1.7210073 -0.8884671 -0.10027904 -0.90672505 3.2503405 0.15955311
0.48996598 -0.14285325 -0.57989436 0.025795974 -0.01485089 -0.4563449 -0.37750375 0.570228
1.3602474 0.20228675 -0.23190235 -0.04909857 -0.60005933 0.024180545 -0.083819084 0.24108608
0.21458775 0.3444505 0.8722167 -0.69143564 -0.6518934 -0.6435459 0.1596103 0.3577116
0.58052605 0.1764538 0.35437623 -0.016142324 -0.09682224 0.052016985 -0.20329542 0.7011599
-0.24324901 -0.13180223 0.77635473 0.6103409 0.23244998 0.041411113 -0.985337 -0.70505846
0.2922193 0.42779303 0.40380985 0.6480963 -0.52536595 0.37754178 1.2066455 0.40606475
-1.0068755 -0.15242468 -0.27806482 0.85227525 0.33995795 0.5336244 -0.2181184 0.6896435
-2.1100023 -0.01295753 0.021870835 -0.19652542 0.9090716 0.19449833 -0.19279177 0.028511994
0.53273445 0.7503571 -0.40615913 -1.1452944 -0.62214863 0.57386446 -0.84099066 0.76462847
-0.59635776 0.97430587 -0.18904057 0.83709306 0.20938407 0.25719073 -0.7099586 0.70358455
0.64943767 0.1680559 0.5387439 -1.981482 -0.6212241 0.004469323 -0.04841215 -0.24998538
-1.2570164 -0.46832794 1.2650769 0.25731105 -0.05085598 -0.017497167 -0.45392334 0.98806274
1.3884802 0.22053432 0.85672206 1.1102291 0.20475313 -0.0048348755 -0.12867558 0.50040984
0.3326056 0.7022258 1.4742581 -0.09885638 0.27787507 -0.34922263 0.31044444 -0.2638862
-0.04454373 0.081895635 0.4347756 -0.93451333 1.1481837 -0.88917744 2.3773055 -0.25227934
00000000: 99e0 e63e a06f 9cbe 1713 2ebe 80b7 5a3e
00000010: d5be 58bd 01a0 00bf 825f c53e f9f2 9e3e
00000020: 6a20 193e 40a6 30bf 3c66 f03e 661d 3dbc
00000030: b108 84bf 5d3e 403f 7c46 09bf f0a3 22bf
00000040: e1cf b9be 421f 41bf e193 033e 42ed 243f
00000050: c3b8 a83e 9671 70bb c7a8 293f fbf3 34be
00000060: ddbc c3bd 4cb0 213f eb8d 993e 204e 5a3d
00000070: d17a 1fbf b53c 40bf c294 67bf 8119 383f
00000080: 7df4 0c3f 7081 bdbe 4a5d ab3e d13c 19bf
00000090: d7c9 0e3e 2406 8f3e 1a1f 42be 4c8c 3c3f
000000a0: 0601 2d3f 5959 9ebf 9a11 a83e 503d 093f
000000b0: 9f9d 36be c276 273f 2e4e 60be 9d0e 3d3f
000000c0: 99dd 39be 6d7f b3bf 2db7 dcbc 9f30 83be
000000d0: 6f15 f23e 2e29 993e c8f9 e43c 754e 743f
000000e0: 1a8d e93e 36da 6a3e 0344 2b3f 55f5 febe
000000f0: f383 1dbf 63fc bf3e 173f 5a3f 504c 0cbf
00000100: 5fd7 87bf 29d2 78be 05d4 0abf 59d4 70bf
00000110: 6583 18bf 67d6 75bf 28f2 3b3e 421f f4bc
00000120: dba1 8c3e 9f11 83be 6d9a 4fbf 0f21 b83d
00000130: 7d91 87bf 8991 5fbd 9cf1 123f 812c d93e
00000140: 5551 24bf aae9 9e3f a2c8 2c3f d1bd a0bd
00000150: eefd 1e3f fab8 adbf 155c cabd b733 ab3e
00000160: e1ba b63e 1ef1 e93e 3608 e83d 8a0b 10bf
00000170: bc5a 0ebf 6ba6 82be 012f 403f 661a b23e
00000180: bfdd 7f3e 34cd 293e 93ad 97bd d6a6 fabe
00000190: b1a9 3b3c a59e edbe 928c 1c3f 4b42 12be
000001a0: 4ede 3dbe f1fb 3abd 6927 e0be 7f78 f0be
000001b0: dfd2 d0be f319 773e 3ddc 3cbf d58b 80bf
000001c0: e180 99bf 3219 3bbf 35af 05be d493 1abf
000001d0: 5db5 513f 6b6e 91bf 4b74 283f 5641 313f
000001e0: 2f6b a2bc 6e9c a23f b35c ac3e 01b5 98be
000001f0: eca0 febe 92f7 3dbf 2c78 683f cd84 be3e
00000200: 649f be3e f841 5cbf f849 dcbf 9472 63bf
00000210: 195f cdbd 221f 68bf 9405 5040 e461 233e
00000220: d2dc fa3e 1f48 12be f573 14bf 1452 d33c
00000230: 2651 73bc 0aa6 e9be 2c48 c1be 76fa 113f
00000240: 961c ae3f 4224 4f3e cf77 6dbe 951b 49bd
00000250: 7d9d 19bf 4716 c63c 57a9 abbd 45df 763e
00000260: e4bc 5b3e d15b b03e 9849 5f3f ed01 31bf
00000270: 7ce2 26bf 6dbf 24bf e270 233e fa25 b73e
00000280: 5b9d 143f 4eb0 343e cd70 b53e e83c 84bc
00000290: bd4a c6bd c30f 553d ad2c 50be 377f 333f
000002a0: 4516 79be 2af7 06be 2fbf 463f 4d3f 1c3f
000002b0: 5e07 6e3e b39e 293d 0c3f 7cbf b67e 34bf
000002c0: c59d 953e b007 db3e 2ac0 ce3e a4e9 253f
000002d0: 627e 06bf 284d c13e 5c73 9a3f b8e7 cf3e
000002e0: 4ce1 80bf 3715 1cbe 835e 8ebe b62e 5a3f
000002f0: f80e ae3e 9c9b 083f 6e5a 5fbe 7a8c 303f
00000300: 470a 07c0 d24b 54bc 772a b33c f63d 49be
00000310: ebb8 683f 922a 473e 356b 45be fc91 e93c
00000320: 4961 083f 6717 403f 17f4 cfbe 0299 92bf
00000330: 2245 1fbf c8e8 123f 2a4b 57bf b1be 433f
00000340: e7aa 18bf 1c6c 793f da93 41be bb4b 563f
00000350: c768 563e 81ae 833e d9bf 35bf 1e1e 343f
00000360: 8c41 263f d916 2c3e 1feb 093f 34a1 fdbf
00000370: 8b08 1fbf 6673 923b d24b 46bd 2bfc 7fbe
00000380: eae5 a0bf aec8 efbe 0aee a13f 46be 833e
00000390: 5c4e 50bd 3856 8fbc a468 e8be aef1 7c3f
000003a0: b8b9 b13f c0d3 613e 2352 5b3f fd1b 8e3f
000003b0: ceaa 513e e06d 9ebb 88c3 03be dc1a 003f
000003c0: 484b aa3e 12c5 333f 7db4 bc3f 3775 cabd
000003d0: a445 8e3e 4fcd b2be 93f2 9e3e 181c 87be
000003e0: 7c73 36bd e6b8 a73d e89a de3e 443c 6fbf
000003f0: aff7 923f 22a1 63bf c625 1840 c22a 81be

fc3.bias f4 [2]
1.3989981 7.473901
00000000: 5f12 b33f 322a ef40
