checkpoint_actor_0.pth (torch_old, 183870 bytes, 6 tensors)

fc1.weight f4 [256, 48]
000000 d9 93 0d 3f 6f 02 97 3e 88 d3 bf 3c c9 96 d4 3f
       0.5530372 0.29494044 0.023416296 1.6608516
000010 cb b7 53 bf 45 bf 15 c0 7e 3b e9 3c bc 6a db 3f
       -0.8270232 -2.3397992 0.02847075 1.7141948
000020 c7 23 39 3f 78 53 2b 3f 14 8c 37 3d 1c 77 80 3f
       0.72320217 0.6692424 0.044811323 1.0036349
000030 a4 69 e3 be 5a 44 c3 bf a9 64 da 3d 0c 14 8c 3f
       -0.44416535 -1.5255234 0.10663731 1.0943618
000040 ab 44 74 3f ff 9a 1c 3e 65 58 91 bd a5 39 cc bf
       0.9541728 0.15293501 -0.07096938 -1.5955092
000050 81 37 8b be 7b 48 cb 3e 60 c2 04 bd 37 40 c3 bf
       -0.27190784 0.39703736 -0.032411933 -1.5253972
000060 5d 7d a9 be 4f 6c 68 bf da 2b 11 3e 34 4d 03 bf
       -0.33103457 -0.90790266 0.14176884 -0.5128968
000070 f6 1f 53 3f b6 21 19 c0 37 3f 72 3e c4 e3 01 bf
       0.82470644 -2.3926826 0.23656927 -0.5073817
000080 86 76 0f bf a8 c2 74 bf 8f ab 8e 3d f4 63 ba be
       -0.5604023 -0.9560952 0.06966316 -0.36404383
000090 16 34 d9 3e 9a 0b c3 bf 15 c6 16 3d e9 4e a2 be
       0.4242255 -1.5237916 0.03681 -0.3170083
0000a0 f1 55 77 bf 22 c4 b9 bf de a3 1a bc 42 ee 4f bf
       -0.9661551 -1.451298 -0.009438483 -0.8122293
0000b0 e1 e8 8f 3e 48 d8 cd 3e 5d 64 18 3d 3e ac 47 bf
       0.2810736 0.40204072 0.03720509 -0.77997196
0000c0 9d e0 27 3f 2b 2c 31 c0 b4 4d 7e be f7 ef a7 3e
       0.6557711 -2.7683208 -0.24834329 0.32800266
0000d0 d1 83 0d 3d 50 1b d5 be 67 8b 5c be 17 2c b4 3e
       0.034549538 -0.416224 -0.21537553 0.35189888
0000e0 ff f0 f5 3e 96 d3 3a c0 d7 14 9e be 9d 01 bc 3d
       0.48035428 -2.9191642 -0.30875275 0.09179995
0000f0 3b ce b3 3c af 3e 54 3f dd d4 60 be 13 d6 05 3e
       0.021948924 0.8290815 -0.21956201 0.13069944
000100 8f 82 18 3f c8 3d 34 c0 76 d5 47 be de 04 f2 bf
       0.59574217 -2.8162708 -0.19515023 -1.8907735
000110 41 ad db ba d7 31 dc 3f 4b 92 56 be 15 c2 f7 bf
       -0.0016760008 1.720271 -0.20954244 -1.9356104
000120 ff 68 eb 3d 4c 7e a6 be a4 c2 e6 be 7d ce df be
       0.11494636 -0.32518232 -0.45070374 -0.43712226
000130 74 f3 a7 bd 06 db d7 be 8e be e8 be 1f 26 f9 be
       -0.08200732 -0.4215929 -0.45457882 -0.48661897
000140 c5 43 19 3e a6 72 9a bf eb 08 23 bd dc 00 cd be
       0.14967258 -1.2066238 -0.039803427 -0.40039718
000150 20 85 dd bc f7 8d 38 3f ea 8d 88 bd d4 92 ee be
       -0.027041018 0.7209162 -0.06667693 -0.46596396
000160 45 38 d8 3e d4 0e 8b bf e7 b0 c2 3e 24 21 71 bf
       0.4223043 -1.08639 0.3802559 -0.94191194
000170 53 0b d0 bd 58 5d df 3f aa 70 9e 3e ca f2 66 bf
       -0.1015841 1.7450361 0.3094533 -0.90214217
000180 2d 3a 77 3e 83 8a 02 40 60 ef 0e 3d b4 f2 08 3f
       0.24143286 2.039704 0.034896255 0.53495336
000190 3d fe 7b 3f ca 07 dd 3d a7 a2 e8 3b 73 b5 20 3f
       0.9843481 0.10792501 0.007099468 0.6277687
0001a0 9b e8 53 3f d8 e5 2e 40 45 9e b1 3c 01 7e 43 3f
       0.827768 2.7327785 0.021681914 0.7636414
0001b0 34 11 76 be 29 52 10 3e 22 19 14 bc 5f 7c 2e 3f
       -0.2403 0.14093842 -0.009039195 0.68158525
0001c0 96 cc a5 3f a2 5b 14 40 5d 66 89 3e e3 1f 4a bf
       1.295306 2.3180928 0.2683591 -0.78954905
0001d0 64 96 a8 bf 24 2c 33 3f a4 5c 81 3e d8 54 46 bf
       -1.3170896 0.6998923 0.25265992 -0.7747321
0001e0 2b 3b 92 bf 41 af 1f 40 21 f5 a6 bd eb 9a 6a 3f
       -1.1424307 2.4950716 -0.081522234 0.91642636
0001f0 db 8c 82 bf b8 ad db 3d 7c fd 5a bc fe 9a 64 3f
       -1.0199236 0.107264936 -0.013366099 0.89299
000200 4f 87 68 bf 31 62 31 40 d0 11 1a be c3 02 5b bf
       -0.90831465 2.7716181 -0.15045857 -0.8555109
000210 fd 69 47 3e 1b 90 21 3e a0 a2 b5 bd f7 32 74 bf
       0.19474025 0.15777628 -0.08868909 -0.95390266
000220 fc 45 54 be 8b 3c 0f 40 84 13 30 bd 58 6e d2 bf
       -0.20729822 2.2380702 -0.04298736 -1.6439924
000230 4f 95 a6 3f 25 78 2a 3f d4 40 82 3d d0 7e d6 bf
       1.3014315 0.66589576 0.06360021 -1.675745
000240 dd 96 6b 3e 99 4f e8 be 52 7f 00 3d 8a 92 ab be
       0.23006769 -0.45373228 0.031371422 -0.33510238
000250 bd 85 b7 be 7b 92 0c be 11 09 a2 3d 8a 31 cd be
       -0.35844222 -0.13727753 0.079118855 -0.40076858
000260 bd fc ac 3c 4c 1b 05 bf 8d ea c7 3d 25 28 17 bf
       0.021116609 -0.51994777 0.09761534 -0.5904563
000270 4f 92 93 3e 4a 71 9f bf 8d f7 99 3d e2 58 11 bf
       0.28822562 -1.2456448 0.0751792 -0.5677625
000280 54 69 8f bd b8 ac 29 bf e6 1d 33 be fa 1a 33 3f
       -0.070025116 -0.6627917 -0.17491874 0.6996304
000290 3c b6 53 3f fd b7 2d c0 80 bb 89 be 00 7a 38 3f
       0.8269994 -2.7143548 -0.26900864 0.7206116
0002a0 18 c6 3a 40 f1 02 e6 bf 98 53 e9 be 21 17 5c 3f
       2.9183407 -1.7969648 -0.4557159 0.8597279
0002b0 4c 26 85 3e 8d 4c 33 be ec 41 db be fc 65 5b 3f
       0.2600578 -0.1750967 -0.42823732 0.8570249
0002c0 d0 2a fe 3f 2e 94 93 bf 30 28 81 bd 4c 28 6f 3f
       1.9856815 -1.1529596 -0.06306493 0.93420863
0002d0 ba f7 83 be 0f 24 a5 bf e2 54 eb bc fd 70 5e 3f
       -0.25774938 -1.2901629 -0.028726999 0.86891156
0002e0 7a 51 b7 3f 1a 11 10 bf 01 25 19 3f a7 c5 e6 3f
       1.432174 -0.56276095 0.5982209 1.8029069
0002f0 e6 88 44 bf 7e 9f 26 c0 67 a1 03 3f ad 27 e5 3f
       -0.7677139 -2.6034846 0.51418155 1.7902733
000300 a0 87 1d 3f c4 f9 16 be 1f 5c 82 3e 0e a5 90 bf
       0.6153507 -0.14743716 0.25460908 -1.1300371
000310 f9 0e 04 3f d2 f2 33 bf 3e 87 a4 3e e3 fa 93 bf
       0.51585346 -0.7029239 0.32134432 -1.156094
000320 03 79 1a 3f f1 96 3d be 61 5f e6 be a4 95 4f bf
       0.603409 -0.18514611 -0.44994643 -0.8108771
000330 aa 35 46 3f 9e 8a 0e bf 63 63 04 bf 4f 39 45 bf
       0.77425635 -0.55680263 -0.5171415 -0.7704057
000340 c1 20 1e 3f 3e f0 96 3c 56 71 9f 3d 08 ec 81 bd
       0.6176873 0.018425103 0.07785289 -0.063438475
000350 bb ca 7b 3f bc 2d 1c bf 84 50 f6 3d ce be 04 be
       0.9835622 -0.61007285 0.12027076 -0.12963411
000360 f9 6b f2 3e 2f 90 d1 bf b1 0d ef 3d 44 51 c8 bf
       0.47348002 -1.6372126 0.11672533 -1.56498
000370 88 22 16 bf 09 7b 2a bf c6 75 34 3e 59 eb b8 bf
       -0.5864644 -0.66593987 0.17623052 -1.4446822
000380 62 4a 90 3f 54 9f b3 bf 73 53 5a 3e c3 b4 cf 3f
       1.12727 -1.4032998 0.21320896 1.6227039
000390 89 ea 47 bf c7 8a 21 bf f9 db 88 3e 2d c4 c7 3f
       -0.7809225 -0.6310238 0.26730326 1.5606743
0003a0 fe 73 fa 3f 73 c8 b3 bf b6 1b d7 3d 74 a2 34 bf
       1.9566648 -1.4045547 0.10503332 -0.70560384
0003b0 fb ef 6c bf 5c b5 22 bf 3c 4d 2b 3e 6a 5e 42 bf
       -0.9255368 -0.6355798 0.16728681 -0.75925314
0003c0 cd a8 5b 3f af 93 76 bf 9c 1c 28 be 2c a7 ff 3e
       0.85804445 -0.963191 -0.16417164 0.4993223
0003d0 fe 0d 7d 3f 87 8b bf 3e 01 87 16 be f5 e6 fe 3e
       0.98849475 0.37411138 -0.14699937 0.4978558
0003e0 6d 1c 11 3f 7a 96 67 bf 76 92 7f bd ac ae 8d 3f
       0.56684 -0.90463984 -0.062395535 1.1068931
0003f0 c8 0d 04 40 f2 f9 b6 3e 4d 9b a9 bd 91 28 8d 3f
       2.0633411 0.35737568 -0.082815744 1.1028005

fc1.bias f4 [256]
000000 81 f7 05 bf 2d b3 46 bf fa 59 19 bf be 54 ef 3d
       -0.52330786 -0.7761715 -0.5990292 0.11686085
000010 b7 74 71 bf c9 37 cf be b5 11 73 bf b8 16 27 bf
       -0.9431872 -0.40472248 -0.94948894 -0.6526904
000020 96 cf 6c bf d8 c4 b3 bf b6 13 68 bf c9 8a db bd
       -0.9250425 -1.4044447 -0.90655077 -0.107198305
000030 d3 7f 20 be b4 4e f0 be 1d 7f 8a bf 9f d7 92 bf
       -0.15673761 -0.46935046 -1.0820042 -1.1472052
000040 0c b6 93 bf fe 4a 0c bf bc f5 74 be ee 7e 39 bf
       -1.1539931 -0.5480193 -0.23921865 -0.72459304
000050 6f 38 ce be f2 35 2d bf b4 95 64 bf c4 36 5e bf
       -0.4027743 -0.6766044 -0.8929093 -0.86802316
000060 bc 13 40 bf 03 3f a4 bf e8 95 b6 bf b9 a4 18 bf
       -0.7503011 -1.283173 -1.4264498 -0.59626347
000070 71 01 bb bf b1 14 a5 bf d3 97 a3 bf 16 88 76 bf
       -1.4609815 -1.289694 -1.2780708 -0.963014
000080 65 bf 61 3e 13 d8 18 bf de 7a 5c bf f9 8a 96 bf
       0.22045667 -0.59704703 -0.8612498 -1.1761161
000090 5f 99 62 bf d4 6a 80 bf d9 e8 66 bf 23 3c a3 bf
       -0.88515276 -1.0032601 -0.9019905 -1.2752727
0000a0 ee e7 26 bf fe 18 21 be 46 2f 19 bf d2 4f 8d bf
       -0.65197647 -0.1573219 -0.5983776 -1.1039984
0000b0 e8 15 a0 bf aa 35 8d bf f4 0b 90 bf d3 a9 4d bf
       -1.2506685 -1.1032002 -1.1253648 -0.80337256
0000c0 4d be 41 bf f3 e8 6d bf 5c 86 ab bf 00 fb 96 bf
       -0.75681 -0.9293358 -1.3400378 -1.1795349
0000d0 b0 d5 89 bf ef c4 03 bf 6f d4 88 bf cb e7 f8 3e
       -1.0768337 -0.5147237 -1.068983 0.48614344
0000e0 34 e0 1b bf 38 2a 9b be fc c5 06 bf 72 bf 80 be
       -0.6088898 -0.30305648 -0.5264585 -0.2514606
0000f0 d6 d8 63 bf 2e 1b 10 3e 32 bc 25 be f2 d4 1b bf
       -0.8900274 0.14072868 -0.16185072 -0.60871804
000100 72 5c fe 3e 1d ec bb bf d3 e8 b1 bf 72 28 02 bf
       0.49679905 -1.4681431 -1.3899177 -0.50842965
000110 c7 e0 a1 bf 36 c1 77 bf 2e 01 0d be 05 00 bb bf
       -1.2646722 -0.9677919 -0.13769981 -1.4609381
000120 a9 04 12 3f 14 2f 26 bf b4 cc 3d bf 58 63 bc be
       0.5703836 -0.64915586 -0.7414048 -0.36794543
000130 06 d7 dc be d0 74 9e bf ff ee 98 bf 00 88 4b bf
       -0.431328 -1.2379398 -1.1947936 -0.79504395
000140 b6 e3 6e bf f1 d1 8f bf 84 ca 1a bf 61 4c c1 be
       -0.9331621 -1.1235944 -0.60465264 -0.37753585
000150 e1 ce 1e bf 63 ac 0d bf c0 b0 c1 bf 21 f8 65 bf
       -0.6203442 -0.55341166 -1.5132065 -0.8983174
000160 27 9e 9c be 1f a6 5a bf 70 67 1b bf 59 58 73 bf
       -0.3058941 -0.8540973 -0.6070471 -0.9505668
000170 c5 0d 52 bf aa 70 53 bd ff 4a b7 be 3f 3e 69 bf
       -0.8205226 -0.051621117 -0.35799405 -0.91110605
000180 ef 14 9e bf 95 07 a9 bf 6c a7 95 bd e4 46 9a bf
       -1.2350138 -1.3205439 -0.07307324 -1.2052884
000190 6f be 3f bd 4f cf cd bf f3 7c bf be 5a ad f1 3e
       -0.04681247 -1.607889 -0.37400016 0.4720257
0001a0 62 ca 18 bf 5a f6 80 bf c2 07 81 bf 5b 7a 89 bf
       -0.5968381 -1.007518 -1.0080492 -1.0740465
0001b0 34 be 10 bf b9 1e df be 52 15 58 bf 71 17 85 bf
       -0.56540227 -0.43578127 -0.8440753 -1.0397779
0001c0 4e d4 44 3e b5 f0 d2 3e 7b d8 51 bf 71 99 b3 bf
       0.19221613 0.4119927 -0.8197095 -1.4031202
0001d0 77 03 70 bf 5b a1 6e bf f3 19 a9 bf 28 24 8a bf
       -0.93755287 -0.9321496 -1.3211044 -1.0792284
0001e0 50 bb 66 be 25 7c b6 bf f7 28 0b bf 74 aa 5d 3e
       -0.22532392 -1.4256636 -0.5435938 0.21647054
0001f0 98 a9 84 bf 0d 67 0a 40 d5 43 93 bf 8c 2b 22 3e
       -1.0364256 2.1625397 -1.1505076 0.15836924
000200 2c e5 70 bf e1 3e ab bf f0 41 47 bf dd fd ad bf
       -0.9409969 -1.3378564 -0.7783499 -1.3593098
000210 54 d3 6f be f3 bb 69 3f 96 82 09 40 af 16 f2 be
       -0.23420459 0.9130241 2.1485953 -0.4728293
000220 86 30 42 bf c8 76 9a bf 8b 16 ac bf 96 75 0a bf
       -0.7585529 -1.2067499 -1.344438 -0.5408567
000230 68 27 0c bf aa a3 7c bf 57 ae 43 3f 7b 23 ba be
       -0.5474763 -0.9868723 0.76437896 -0.36355194
000240 56 dc 26 bf 24 1f a8 bf 3b f2 9d bf c9 62 7b bf
       -0.65179956 -1.3134503 -1.2339548 -0.9819761
000250 8b b4 79 bf a3 39 82 bf fc 20 01 bf 6d dd 86 bf
       -0.9754111 -1.0173839 -0.50440955 -1.0536324
000260 4b 51 8c bf d1 36 15 be bd b4 bf bf 62 c5 fd bf
       -1.0962309 -0.14571692 -1.4977032 -1.9825861
000270 24 63 a2 bf 1a a3 2c bf 0a 29 eb be 38 3f 2d bf
       -1.2686505 -0.67436373 -0.45929748 -0.6767459
000280 dd dc 08 bf f3 90 81 be 33 7f bd bf 81 3b 8e bf
       -0.5346201 -0.253059 -1.4804443 -1.1111909
000290 ad 7b a9 bf e3 81 7c bf 1f 89 ae bf d3 d4 a8 bd
       -1.3240868 -0.9863569 -1.3635596 -0.08243718
0002a0 4b d2 b2 bf a2 b3 8d bf 8e 45 a0 be b4 07 9f bf
       -1.3970426 -1.1070445 -0.31303066 -1.2424226
0002b0 c0 8a 9b bf 92 ab 65 bf ab 4e 38 bf 7b 9e 9e bf
       -1.2151718 -0.8971492 -0.7199504 -1.2392114
0002c0 81 3d 3a bf c1 3c 82 bf d3 61 f7 be d0 a2 16 bf
       -0.727501 -1.0174791 -0.4831682 -0.5884218
0002d0 2b aa 60 bf b7 82 d8 be d3 3d 6a bf c4 de 84 bf
       -0.87759656 -0.42287228 -0.91500586 -1.0380483
0002e0 40 af 57 bf 3e 95 34 bf 33 27 6e bf 9d b3 d2 3e
       -0.84251785 -0.70540226 -0.93028563 0.4115266
0002f0 a4 33 61 bf 74 83 16 bf 4e 51 79 3f 49 3b 18 be
       -0.8796942 -0.5879433 0.97389686 -0.14866365
000300 22 f0 b3 bf cf 46 63 bf 74 1c 9f be 33 49 4c bf
       -1.4057658 -0.8877992 -0.31076396 -0.79799193
000310 8c b6 90 bf 3e 38 9f bf 8b 13 38 bf 5e 89 8b be
       -1.1305709 -1.2439039 -0.7190482 -0.2725324
000320 5a b2 70 bf 21 a6 b8 bf 75 bd 11 bf 87 33 66 bf
       -0.9402214 -1.4425699 -0.56929713 -0.89922374
000330 52 83 30 bf c7 a7 98 be bf ff 9e be e9 aa 8f bf
       -0.6895038 -0.29815504 -0.31054494 -1.1224033
000340 b1 3c 3f 3e 59 df 9f bf 10 da 9c bf 7e e5 1f bf
       0.18675496 -1.2490035 -1.2254047 -0.6245955
000350 74 d7 cf 3f b3 eb 25 bf cb 1e 93 be 7b 2b 30 bf
       1.6237626 -0.64812773 -0.2873443 -0.68816346
000360 12 3c 31 bf 1f a3 f8 be 28 ea 60 bf 80 47 25 bf
       -0.69232285 -0.48561952 -0.87857294 -0.64562225
000370 39 f6 0b bf 01 a3 a7 bf 30 db 7e bf ce 72 6f bf
       -0.5467258 -1.309662 -0.99553204 -0.93534553
000380 d4 43 19 be 9f 7d 7a bf b1 4e 5c bd c1 06 80 bf
       -0.1496728 -0.9784793 -0.053785983 -1.0002061
000390 a8 da 96 bf 64 a6 ab be 7a 7d 79 bf 85 3b 51 bf
       -1.1785479 -0.33525383 -0.9745709 -0.81731445
0003a0 f4 3a 3a 3e 18 9b 27 bf 1b 17 80 bf 0a 28 07 bf
       0.18186551 -0.6547103 -1.0007051 -0.5279547
0003b0 34 8f aa bf 80 43 24 bb 2f 99 47 3e 6f eb 98 bf
       -1.3324952 -0.0025064647 0.19492029 -1.1946849
0003c0 f6 95 d7 bb 43 91 11 bf af 97 60 bf 1d 6a bc bf
       -0.006579156 -0.56862277 -0.8773145 -1.4719883
0003d0 a7 17 61 bf a7 f5 f5 be e4 71 de be 0a 3c bd be
       -0.87926716 -0.4803898 -0.43446267 -0.3695987
0003e0 8d e2 5e be 5b 69 04 bf c4 3f 27 bf d9 b9 b8 40
       -0.2176611 -0.5172326 -0.65331674 5.7726865
0003f0 3d 2b 32 bf 97 ab 3e bd 70 60 a3 bf c2 22 62 bf
       -0.69597226 -0.04655036 -1.2763805 -0.88334286

fc2.weight f4 [128, 256]
000000 11 37 a6 3e c2 9b 35 bf 84 43 a8 be 7d 64 8d bf
       0.32463887 -0.7094079 -0.3286401 -1.1046292
000010 9d 49 84 3e 17 88 fd 3e f7 13 72 bf d5 f6 84 bf
       0.25837412 0.4951789 -0.94561714 -1.0387827
000020 ca ff cb 3e e0 69 5d be 94 30 5b bf 66 fc fa be
       0.3984359 -0.2162242 -0.85621 -0.4902069
000030 2f 48 be be a0 ff 1a 3e 6c dd 9a be b2 04 79 bf
       -0.37164447 0.15136576 -0.30247056 -0.9727279
000040 49 fa 51 be 72 49 6d bf 0d 99 89 3e 0f c3 a5 3d
       -0.20505632 -0.92690194 0.2687458 0.08093845
000050 80 8d 98 bd 4c 28 80 be 4b 8d da bd 24 41 5c bf
       -0.07448864 -0.25030744 -0.10671481 -0.86036897
000060 92 3d 17 bf af 8d bd be 39 fd 4c be d8 48 56 bf
       -0.59078324 -0.37022159 -0.20018472 -0.837049
000070 a6 49 2c bf ea 37 6c bf 65 80 0c 3d 6e 57 cb 3e
       -0.6729988 -0.9227282 0.034302134 0.3971514
000080 b7 79 a3 be 2f ff f2 be f6 05 23 bf 89 42 4b bf
       -0.319288 -0.47460315 -0.6368097 -0.793984
000090 9f bd df bf 72 f7 96 be ab a9 e9 bd 4a b6 05 bf
       -1.7479743 -0.2948566 -0.11409315 -0.52231276
0000a0 aa 2b b1 3e 5e 2e 28 3e a3 ac 75 be 78 f7 63 bf
       0.34603626 0.16423938 -0.23991637 -0.8904948
0000b0 a5 bf 89 be 99 c4 98 3e f4 bb 90 bc 0a 90 6f 3e
       -0.26904026 0.29837492 -0.017667748 0.2339479
0000c0 64 19 55 be 0e 29 98 3e 72 97 96 be 18 dc 13 3e
       -0.20810467 0.29718822 -0.2941242 0.14439428
0000d0 94 7d 04 be 01 ec 49 3f c5 14 14 3e 8e 8a fd 3e
       -0.12938529 0.7887574 0.14461048 0.4951977
0000e0 4d 6f 9c bf db 27 5b bf cd 89 e6 3d cd 66 ee 3e
       -1.2221466 -0.8560769 0.11256752 0.46562806
0000f0 33 96 a0 bd 0d a1 03 be 07 0f 10 bf bb 24 51 3e
       -0.07841148 -0.12854405 -0.5627293 0.20424168
000100 2b 58 c2 be 9f 11 07 3f bb 64 3b 3f 66 92 8e be
       -0.37957892 0.5276126 0.7320058 -0.27846068
000110 ab b2 4f 3f 59 a0 c3 3d 2b 6f ab be 85 c4 72 bf
       0.81132 0.09552068 -0.33483252 -0.94831115
000120 ba da 97 3e f0 66 51 be bf 07 68 bf d2 d8 56 be
       0.29659063 -0.20449424 -0.9063682 -0.20981148
000130 c7 b0 cc 3e 74 f5 72 be 48 7a 74 3f 9a f2 ff be
       0.3997862 -0.23726445 0.95499086 -0.49989778
000140 31 90 de 3e 97 09 a9 be a2 d5 2d be a7 82 4e bf
       0.43469384 -0.3301513 -0.16976026 -0.8066811
000150 56 9d 11 c0 98 7f f1 be 3e fe a9 be 6c b9 74 bf
       -2.275228 -0.4716766 -0.33201784 -0.9559543
000160 25 2b 9f bf ff 6f 7e 3f 39 95 25 3f 0b 3d 37 3f
       -1.2435042 0.9938964 0.6468082 0.7157752
000170 e6 9e 4e be 76 f8 cd be 38 36 ff 3e 3f 6b 33 3f
       -0.20177802 -0.40228623 0.49846053 0.7008552
000180 4e 6e 24 be 67 22 da 3e 9a 22 40 3e eb c9 a1 3e
       -0.16057703 0.42604372 0.187632 0.31599364
000190 bc 2b 9c bf f8 31 22 3e d4 b8 63 bd 0c 1d 2e bf
       -1.2200847 0.15839374 -0.055596188 -0.6801307
0001a0 6b 64 31 3e 4f 41 9a bd 99 82 da be 3c e5 7d 3d
       0.17323463 -0.07531988 -0.42677763 0.061986193
0001b0 17 2e ad 3e 11 68 15 be dd 5c 20 bf 5b 23 49 bf
       0.33824226 -0.1459048 -0.626417 -0.78569573
0001c0 e1 35 32 3f 6a 18 1a bf 71 f8 bd bc 26 fe 55 3f
       0.6961346 -0.601935 -0.023189755 0.83590925
0001d0 43 50 fb bd 65 ed 16 be 49 a3 67 be 75 08 c5 3d
       -0.12271168 -0.14738996 -0.22620882 0.09620754
0001e0 01 2c 04 bf 0c 75 b9 be 6d 71 4c bf 35 a5 d3 be
       -0.51629645 -0.36222112 -0.79860574 -0.4133698
0001f0 9a f6 9a 3f 2f 82 b3 3e 34 24 a6 3f cc 31 2b 3e
       1.2106507 0.3506026 1.2979798 0.16718215
000200 a6 5c 2a 3e 13 71 e7 bd 9f 8b 7c 3e cb 4b 14 bf
       0.16636905 -0.11300864 0.24662636 -0.5792815
000210 5c 85 21 bf 97 92 48 be 2b a8 9e be 3a 2a 2d 3f
       -0.63094115 -0.1958717 -0.30987677 0.6764256
000220 c2 04 11 3f ae 0f c0 3e b8 d1 48 bc c8 3a 41 be
       0.56647885 0.37511963 -0.012257032 -0.1887008
000230 2d 5b a2 bc 79 75 a0 bf 83 f9 7e bf e1 90 1b bf
       -0.019818867 -1.253585 -0.99599475 -0.6076794
000240 68 7a 4a bf 72 84 0b 3f a1 06 8e bd 74 8f 25 be
       -0.7909303 0.5449897 -0.06934858 -0.16168004
000250 79 ad 48 3e 4e 0f e8 3d 41 50 dc be 62 f3 1f be
       0.19597425 0.11331044 -0.4302998 -0.15620187
000260 ea 3e 67 be 82 12 5f bf 42 66 67 bf fe 30 bd 3e
       -0.22582594 -0.87137616 -0.9039041 0.3695144
000270 42 d6 92 be 03 0f 03 3d 2e e3 c3 be c7 73 58 be
       -0.2867909 0.03199674 -0.38259262 -0.21137916
000280 84 96 c3 be 36 72 c6 3e 11 0d 87 bf c4 dd 42 bf
       -0.38200772 0.3875901 -1.0550863 -0.7611964
000290 47 41 a5 bf 15 33 92 3e f6 68 88 3f cf ea 9b be
       -1.2910546 0.28554597 1.0657032 -0.30452582
0002a0 3c 96 8e bf 3b 36 ed bd ff a8 08 bf 8e 0e 4f bf
       -1.1139598 -0.11582609 -0.5338287 -0.80881584
0002b0 1e 8c 50 bf a4 56 5f 3f 7d b5 11 3f 85 bb f1 be
       -0.814638 0.8724158 0.56917554 -0.4721338
0002c0 96 29 80 3f ba 69 a8 bf 57 30 58 3f 47 3e 5e be
       1.0012691 -1.3157265 0.8444876 -0.21703444
0002d0 49 e2 92 3f 13 1b 8c be 32 10 4c be 24 c7 5b bf
       1.1475307 -0.27364406 -0.19928053 -0.8585074
0002e0 0b 71 a5 3f b2 c5 10 3f fa 19 bf bf 68 dd 3e bd
       1.2925123 0.5655166 -1.4929802 -0.04659787
0002f0 c6 9a 4d bf 28 a5 57 bf 87 63 6f be 94 9c f0 bd
       -0.8031429 -0.84236383 -0.2337781 -0.11748615
000300 21 6f 4e be 5d b5 78 3e b0 5f a9 bf 03 6e 21 bf
       -0.2015958 0.24287935 -1.3232327 -0.6305849
000310 e7 da 70 3f 7f 8a cb 3e b6 7f 47 bf 6b 37 01 3f
       0.9408402 0.39754102 -0.77929246 0.50475186
000320 11 5e cf be 33 a9 0d be 52 2d 75 3e 47 61 0b bf
       -0.40501454 -0.13834076 0.2394307 -0.5444531
000330 95 81 15 3d 52 92 d5 be cd c8 87 be 77 f1 8d bf
       0.036500532 -0.41713196 -0.26520386 -1.1089314
000340 9c 0c 14 3c f9 ba 3f be a8 0d d4 3e 22 5d af be
       0.009036209 -0.18723668 0.4141667 -0.34250742
000350 7d af 38 bf d1 fd f9 bc 25 1e 59 3d eb 36 6f bd
       -0.72142774 -0.030516537 0.053007264 -0.058401983
000360 e9 b2 08 3f f6 b3 70 bf c8 54 77 3e a4 a1 15 be
       0.53397995 -0.940246 0.24153435 -0.14612442
000370 1b 25 6c be 37 39 4a be 2f 90 3e 3f 1b b9 2f bf
       -0.2306103 -0.19748388 0.74438757 -0.68641824
000380 f4 97 52 3f 57 58 41 3f 45 5f 14 bf d1 9f 7d 3f
       0.8226311 0.7552542 -0.5795787 0.99071985
000390 a5 5a 04 3f ce c0 9a bf 89 8a ea be f2 4b 24 3e
       0.5170081 -1.2090089 -0.4580882 0.16044596
0003a0 8a 56 77 3f d0 7b 00 3f 1e 9e cb be 6b 85 ba 3d
       0.96616423 0.5018892 -0.3976907 0.09107479
0003b0 fc 15 96 be 95 bd cd be 80 d4 3f 3e e5 80 5a 3e
       -0.29313648 -0.40183702 0.18733406 0.21338232
0003c0 ee 07 a6 be 78 fe 4a 3f aa 01 17 bf 42 33 33 bf
       -0.32427925 0.7929454 -0.58986914 -0.7000009
0003d0 b7 75 90 be 0d b9 96 3d 59 f9 7b 3e 09 cd b5 3f
       -0.2821481 0.073595144 0.24606837 1.4203197
0003e0 85 a8 84 be b5 bb ae bf 6e 10 5b bf 87 b0 8e bf
       -0.2590982 -1.3651034 -0.85571945 -1.1147622
0003f0 66 3a 06 be 26 04 db be f1 a5 54 3f a8 6c 3b 3f
       -0.13108215 -0.42776603 0.83065706 0.7321267

fc2.bias f4 [128]
000000 1f e4 64 bf 92 aa 2b bf 17 c9 5c be 25 cd 5c be
       -0.89410585 -0.67057145 -0.21561085 -0.21562631
000010 71 5d 28 be 5f 62 a6 bf 53 26 d4 be 9a f2 1a bf
       -0.16441895 -1.299877 -0.4143549 -0.6052643
000020 72 bb 2c bf 49 c2 03 bf 95 10 60 3f fe 3a 0d be
       -0.6747352 -0.5146833 0.875253 -0.13792035
000030 7c 6a bc be 15 c9 69 be 56 3d 49 be 74 e8 fb be
       -0.3679999 -0.22830613 -0.19652304 -0.49200785
000040 da cd c3 bf 48 81 0e bf f8 66 9e bf 4a 81 7d bf
       -1.5297196 -0.5566602 -1.2375174 -0.99025404
000050 de 0c 4d bf 3b 19 c3 be 20 4a 68 bf 33 1f ed 3d
       -0.8009776 -0.38105187 -0.90738106 0.115782164
000060 17 19 d6 be 38 fa 32 bf 02 54 cf bf 93 27 60 bf
       -0.41816017 -0.69913054 -1.6197512 -0.87560385
000070 44 f0 84 bf 0b 5d 75 be 52 95 19 bf e8 29 74 bf
       -1.0385823 -0.23961274 -0.5999347 -0.95376444
000080 f4 4b 4e bf 83 b7 e4 3e ea de a4 bf 42 65 1f bf
       -0.80584645 0.44671258 -1.2880528 -0.6226388
000090 c7 76 3e bf 79 19 5b bf 26 20 63 bf 30 17 06 bf
       -0.7439999 -0.85585743 -0.8872093 -0.5237913
0000a0 34 a7 67 bf e8 78 54 3d 89 d4 88 bf ea e0 10 bf
       -0.90489507 0.051873118 -1.068986 -0.5659319
0000b0 f3 f6 6f bf b5 8a 40 bf f1 a0 8d bf 77 10 97 bf
       -0.9373619 -0.7521165 -1.106474 -1.18019
0000c0 db a8 84 bf 57 04 04 be d3 af 38 bd 7c cd 4b bf
       -1.0364031 -0.1289228 -0.045089554 -0.7961042
0000d0 73 63 87 bf dd dc 91 be 33 21 7d bf 0c 31 31 3b
       -1.0577224 -0.28488818 -0.98878783 0.002703729
0000e0 e8 0e 7f bf 17 6a c0 be f2 ab 37 bf 12 63 3b bd
       -0.9963212 -0.3758094 -0.7174674 -0.045748778
0000f0 8c 8b f0 be 63 20 41 bf ff 24 30 bf 86 3e 8c be
       -0.46981466 -0.75440043 -0.6880645 -0.27391452
000100 b3 26 59 bf 79 5e 50 bf e3 2b d3 be cd 74 87 be
       -0.84824675 -0.81394154 -0.4124442 -0.264563
000110 8b 46 59 bf d5 62 fc bf 51 b3 9b bf 4e 01 dc 3d
       -0.84873265 -1.9717661 -1.2164098 0.10742436
000120 63 68 4d bf 52 ac 24 be 08 fd 05 be 6c 3e 8b bf
       -0.80237406 -0.1608136 -0.13084805 -1.0878425
000130 a6 ed db be 82 8b d2 be 3f 00 50 bf a7 a0 b1 bd
       -0.4295475 -0.4112206 -0.81250376 -0.0867322
000140 8d f0 b2 be f5 05 ad be af 22 68 be 14 6e 8e bf
       -0.3494915 -0.33793607 -0.2266948 -1.1127343
000150 26 1a 7d bf 61 07 02 bf 51 5e 65 bf a5 c6 35 bf
       -0.98868024 -0.5079251 -0.8959704 -0.7100623
000160 6a 2d 69 be 41 a1 27 bf e3 c0 24 3e 10 bd 7f bf
       -0.2277123 -0.6548043 0.16089205 -0.9989786
000170 e5 c3 4d bf cb 43 ef 3d 74 27 36 bf 5f 04 27 bf
       -0.80377036 0.11682852 -0.7115395 -0.65241045
000180 4e 89 e3 be fa 0a ca be b8 03 ef be 08 62 d1 bf
       -0.44440693 -0.394615 -0.46682525 -1.6358042
000190 2e c4 30 bf 1f 78 8b be c7 da a3 be 4d 93 b9 be
       -0.69049346 -0.27240083 -0.3200285 -0.36245194
0001a0 1a 6f 92 bf 39 a4 7d bf c4 e4 5b bf a3 a7 32 bd
       -1.1440156 -0.9907871 -0.85895944 -0.043616902
0001b0 3e 2d 3a bf 9c 45 91 bf 27 a9 6c 3e 8b e0 67 bf
       -0.72725284 -1.1349368 0.23111401 -0.90577
0001c0 6b f3 07 c0 33 d2 ba bf 94 04 82 bf 93 21 02 bf
       -2.124232 -1.4595398 -1.0157647 -0.5083248
0001d0 a1 44 da be 0e 1d 71 bf e1 f1 aa bf 82 fc 11 bf
       -0.42630485 -0.9418496 -1.3355066 -0.5702592
0001e0 64 51 17 bf 54 2c 6c bf 5f e3 fb 3e 35 79 9d bf
       -0.5910857 -0.9225514 0.49196908 -1.2302614
0001f0 6b 23 9c 3c 55 75 f0 be 49 40 a3 bf 50 d1 9a bf
       0.019059857 -0.46964517 -1.2753993 -1.2095127

fc3.weight f4 [2, 128]
000000 3c e5 d3 bd 02 50 10 bf 5c 19 40 3e f8 16 3a 3e
       -0.10346457 -0.5637208 0.18759674 0.18172824
000010 07 99 39 bc 70 e2 27 bd f9 aa de be a5 ff 41 3e
       -0.0113279885 -0.040987432 -0.43489817 0.18945177
000020 97 0f 3e bf a9 a9 d8 3c a5 d6 4b 3c ea 39 25 3d
       -0.7424254 0.026448088 0.012441312 0.040338434
000030 28 87 8d bd 10 bf 8b 3f 9e 5f 1b 3f ef 6f 8d 3e
       -0.06910545 1.0917683 0.60692775 0.2762446
000040 4a bc 6f 3f da ba ba 3c a0 8e 0a bf a0 39 b6 bd
       0.9364668 0.022794176 -0.5412388 -0.0889771
000050 0e e2 34 be ba 90 02 3e 24 8c bc bc 2c 38 b0 be
       -0.17664358 0.12750521 -0.023016043 -0.34417856
000060 cf 63 a3 be ca 19 62 3e 2c f1 23 be 97 cc 9e 3e
       -0.31912085 0.2208015 -0.16009969 0.31015465
000070 bb 06 a8 3e cb 34 23 3f 95 c0 b4 3e 72 07 ff be
       0.32817635 0.6375243 0.35303178 -0.49810368
000080 f0 ae f6 be ce 6d 95 be 3c d8 36 3f dd 5c 93 3e
       -0.48180342 -0.29185337 0.714237 0.28781787
000090 1d 88 11 bd b2 3e 8e be 20 42 c2 be 5b 57 b6 3e
       -0.0355302 -0.27782208 -0.37941074 0.35613522
0000a0 7d 68 37 bd e0 8d 17 3f 85 ca b3 3e a2 7f 8f bd
       -0.044777382 0.5920086 0.35115448 -0.07006766
0000b0 93 b1 6f bd c5 39 e8 be 9d 45 af be 79 72 1d bf
       -0.058518957 -0.45356575 -0.34232798 -0.61502796
0000c0 d9 a2 b1 3e 1c cf 0f be 4e f2 a2 be bf 4e 1c bd
       0.34694555 -0.1404385 -0.3182549 -0.038161036
0000d0 51 c7 12 3f a0 01 0c 3f 8f 7f 8d be 3b 1c d8 3e
       0.5733538 0.5468998 -0.27636382 0.42209038
0000e0 a7 09 e1 be d7 3c 96 bf f3 01 77 be 6d 9d 53 3c
       -0.43952677 -1.1737317 -0.24121837 0.012915951
0000f0 6f 64 32 3f bd 8b f0 3e cb 12 e4 3d 29 ae 29 bf
       0.696845 0.46981612 0.11136397 -0.6628137
000100 30 37 4d be fd 8b 2c 3f 95 1a 06 3f a0 9d f7 3e
       -0.20040584 0.67401105 0.5238431 0.48362446
000110 b8 19 fa 3e da df 7f 3f 8f 50 8d be a8 3d 07 3d
       0.48847747 0.99950945 -0.27600524 0.033017784
000120 6d f7 38 3f 93 ae ef 3e e0 eb d8 bd 55 92 a8 be
       0.7225254 0.46812877 -0.105918646 -0.32924142
000130 ab f4 42 3e 30 9f 3f 3d a3 60 99 be 2c 4e ba 3e
       0.19038646 0.046782672 -0.2995654 0.36387765
000140 59 f6 35 3e a5 2a c9 3e 0d 26 e8 3e 23 ff 6f be
       0.17769755 0.39290348 0.4534153 -0.2343717
000150 a9 96 89 bc a0 22 d9 be da 81 9f 3d 4e e2 29 3f
       -0.016795473 -0.4240923 0.07788439 0.6636094
000160 e4 63 b2 3e b2 57 c0 3e de af 2c 3e 57 c1 0d be
       0.34841835 0.37566906 0.16863963 -0.13843285
000170 98 07 56 be f4 02 04 3d 5d af 8c be 33 0c 84 3f
       -0.20901334 0.03222938 -0.27477542 1.0316223
000180 95 89 38 bf 9b 2b c6 3e 74 5b fd 3e cf 8d f3 bc
       -0.72084934 0.38705143 0.49483836 -0.029730706
000190 c9 db 80 3f 04 63 df be bf 01 bb 3e bb 99 82 3e
       1.0067073 -0.4363023 0.3652477 0.25507912
0001a0 88 1d 3a 3e fa 07 0e bf 6b 2b 5d be 7c ca e9 bc
       0.18175328 -0.5548092 -0.21598594 -0.028538935
0001b0 c3 d4 68 3e 00 fb d7 be 19 df 2d 3e 59 0d 3b 3f
       0.22737412 -0.42183685 0.16979636 0.7306724
0001c0 94 99 92 be 34 4b 40 be 45 89 31 3f 7b f4 50 3f
       -0.28632796 -0.18778688 0.6935008 0.8162305
0001d0 6d 9b 0f 3f 66 1f 53 3f 78 65 74 3f 37 7b de 3d
       0.56096536 0.82469785 0.9546733 0.10863345
0001e0 31 aa 7a 3e 32 11 2c 3f 9f f0 46 3e 58 1c 58 bd
       0.24478985 0.6721374 0.19427727 -0.052761406
0001f0 69 dc 86 3e 30 25 4b 3f 6d 35 aa be c7 e2 0d be
       0.26340035 0.7935362 -0.33243886 -0.1385604
000200 ca ad 51 3f a5 ca 3a be 1a d5 3d 3d 96 ee 51 bf
       0.81905806 -0.18241365 0.046345808 -0.8200468
000210 db ac b1 3c ef 65 87 be 96 32 09 bf ad 94 e2 bf
       0.02168887 -0.26444957 -0.53592813 -1.7701622
000220 63 0b 7a 3e 05 95 90 3f 4b b6 cf 3f 44 5b 8d bf
       0.24418406 1.1295477 1.6227506 -1.1043477
000230 1c 20 79 3f 54 fa 7b be cc ae 97 bf 82 03 83 3f
       0.9731462 -0.24607211 -1.1850219 1.0235445
000240 98 a7 57 be 17 c8 a3 be 8f 69 39 bf d1 e9 23 3f
       -0.21060026 -0.31988594 -0.72426695 0.6402865
000250 5e 6b 8b bf 3e 2c 8b 3e fb 70 4e bf d6 20 d0 be
       -1.0892141 0.27182192 -0.80641145 -0.40650052
000260 72 1d 1a bf 98 8a c8 bb 53 d7 44 bf ce 8f 6c 3e
       -0.6020118 -0.0061200373 -0.7689106 0.23101732
000270 6c 74 9a 3e fe ab dc 3e bf 08 d2 3f a7 8f 1a bf
       0.30166948 0.4309997 1.6408919 -0.60375446
000280 3b 20 a4 3e f2 10 0a bf 0a e8 00 bf e6 76 22 3f
       0.3205584 -0.53932106 -0.50354064 0.63462675
000290 ab f5 ab be 83 bf eb be cd 79 93 3f e8 b2 ae 3e
       -0.33585867 -0.4604455 1.1521546 0.3412087
0002a0 f5 3d d6 3e 26 2f 0e 3d 79 72 e1 be 89 97 97 3f
       0.41844144 0.034712933 -0.44032648 1.184312
0002b0 cb 40 56 be f1 5a 82 3d ac d7 9f 3e 2c c7 9a 3e
       -0.20923154 0.06365002 0.31219232 0.3023008
0002c0 1f b6 86 bf b4 39 8d 3f 73 f8 d9 3d 08 b1 85 3f
       -1.0524329 1.1033235 0.10643091 1.0444651
0002d0 64 0a 4b bf e1 2e 87 bf b0 15 80 3f 69 b2 6f 3e
       -0.7931273 -1.0561181 1.0006618 0.23407902
0002e0 77 72 ac be a8 38 e0 3e 95 e8 4f 3f 0c 7f ef 3b
       -0.3368108 0.43793225 0.81214267 0.0073088463
0002f0 17 18 2a bf 7b 7f 88 bf 4d 41 8b bf 54 72 46 bf
       -0.6644301 -1.0663904 -1.0879303 -0.775182
000300 7f 1e 45 3f 5b d1 1a 3f aa 3b 60 bf e1 be 3d bf
       0.7699966 0.604757 -0.8759104 -0.74119383
000310 28 9e 3d bf 44 57 a2 bf 5f cd 9d bf fc be 50 3f
       -0.7406945 -1.2682881 -1.2328299 0.8154142
000320 e8 f6 d3 3f 8d 6f 24 3f 9d 62 97 3f fe dd 05 bf
       1.6559725 0.64232713 1.1826969 -0.5229186
000330 b5 dd e1 3e 11 24 88 bf 79 d1 4d 3f 45 83 8f be
       0.44114462 -1.0636007 0.80397755 -0.28029838
000340 ec 3f 19 bf d9 c2 08 3d d7 a2 a2 bf 80 44 09 3f
       -0.5986316 0.033388946 -1.2705945 0.5362015
000350 67 77 80 3f 0c 06 33 3e 01 04 64 bf 5f 68 64 bf
       1.0036439 0.17482775 -0.8906861 -0.8922176
000360 db 07 30 3e 47 2f 9c 3d 88 fb 86 3e 7a 1d 5c bf
       0.17190497 0.07626205 0.26363778 -0.8598248
000370 82 e4 ea 3e a3 14 22 bf d3 f1 14 be db 09 74 bf
       0.45877463 -0.6331274 -0.14545374 -0.9532754
000380 ff 71 a1 be 33 33 7e be a5 e7 3c 3e 9c 69 1e 3c
       -0.31532285 -0.24824218 0.1844774 0.009668734
000390 83 62 a5 3f 3d 78 d9 be 23 54 c1 3e 7a 03 5e bf
       1.2920688 -0.42474547 0.37759504 -0.86724055
0003a0 6b b6 9a 3f 4f 48 83 3b bf 16 6e bf d1 d4 fa ba
       1.208692 0.0040064226 -0.9300346 -0.001913691
0003b0 77 8e aa bf 6c 3c bb be 72 a2 60 3f a6 c4 10 3f
       -1.3324727 -0.36569536 0.8774787 0.5655006
0003c0 b8 e6 49 bf 6e 9a 9e be 01 83 42 bf 80 57 5f bf
       -0.78867674 -0.30977196 -0.75981146 -0.8724289
0003d0 71 1d 71 3f 09 f2 b6 bf 39 36 bc 3e b8 a9 db 3e
       0.9418555 -1.4292613 0.3676012 0.42902923
0003e0 99 11 5a bf 28 4c 33 be c6 73 d1 3e c3 eb f4 be
       -0.851831 -0.1750952 0.4090864 -0.47836122
0003f0 47 ab 97 3e df bb b1 be b2 a6 19 be d1 e1 1b bf
       0.29622862 -0.34713647 -0.15004995 -0.60891443

fc3.bias f4 [2]
000000 dc 75 ec be 22 ba fa 3f
       -0.4618367 1.9588053
