checkpoint_critic_1.pth (torch_old, 185404 bytes, 5 tensors)

fcs1.weight f4 [256, 48]
000000 c7 df 88 3e c2 90 2f 40 c1 0c 89 be cd 53 86 be
       0.2673323 2.7432103 -0.26767543 -0.2623581
000010 3e cd 2a 3e e0 30 75 bf ae 51 91 be 8c 82 6d be
       0.16679856 -0.957777 -0.2838263 -0.23194331
000020 93 82 75 3f 17 76 03 40 e3 41 8a be 43 0f f0 bd
       0.95902365 2.0540826 -0.27003393 -0.11721661
000030 33 6e 0f 3e 67 4d 67 bf 9b 86 27 be a6 c4 1d be
       0.14006881 -0.9035248 -0.16359942 -0.15407047
000040 53 3a 01 40 61 07 f6 3f 41 0c 60 bc 73 d4 e2 3d
       2.0191848 1.9221002 -0.013674797 0.11075678
000050 6a 97 99 3d 32 e9 24 bf 50 38 d6 3c ed 4d ad 3c
       0.07499583 -0.6441833 0.026149899 0.021155322
000060 dd 63 27 3f 43 38 f0 3e 79 f2 47 3d 99 02 75 3d
       0.65386754 0.46917924 0.048815224 0.05981693
000070 5f b5 72 be 02 c3 82 bf 84 aa 4b 3c 1a e2 bf 3d
       -0.23702 -1.0215762 0.012430791 0.09369297
000080 31 da 88 3f 3c 74 10 3f 47 35 30 be ba ab 13 3d
       1.0691587 0.5642736 -0.17207824 0.036052443
000090 78 90 41 be 9e a6 60 bf ee b4 45 be 33 eb bb 3d
       -0.18902767 -0.8775424 -0.193073 0.0917572
0000a0 1e 45 4e 3f a6 ed 71 3f 8d 66 4b be 36 48 3f bf
       0.80574214 0.9450325 -0.19863339 -0.7471956
0000b0 32 3c f1 bd 6a 32 25 bf 98 54 44 be 3c 9c 2b bf
       -0.117790595 -0.6453005 -0.19172895 -0.6703527
0000c0 5b 60 a6 3e c8 67 61 3f f6 9e 35 be d6 1c b4 3e
       0.32495388 0.8804898 -0.1773642 0.3517825
0000d0 49 4b 26 bf f7 ab e9 bf 8f 87 56 be 58 3f d9 3e
       -0.64958626 -1.8255605 -0.20950149 0.4243114
0000e0 d2 af 33 3e 7a 40 4b 3f a2 1a 83 be f4 b2 fc 3c
       0.17547539 0.7939526 -0.25606257 0.03084705
0000f0 19 8d 29 3e 25 b7 05 c0 1f 25 87 be 46 c2 47 3d
       0.1655773 -2.0893033 -0.2639551 0.048769258
000100 f8 ae a0 be 3b 2a 10 bf 07 5b f4 3a 73 f6 55 3e
       -0.3138349 -0.5631444 0.0018642851 0.20894794
000110 d8 76 f1 3e f2 3e 20 c0 7f 81 89 bc 1f 34 01 3e
       0.47160983 -2.5038419 -0.016785381 0.12617539
000120 2a 44 ab 3d b5 00 a0 bf 73 e7 c0 3c 4f ed ce be
       0.08362611 -1.2500216 0.023547864 -0.40415427
000130 a0 7e 11 3f 5e ac e6 bf 37 11 bc bc a8 4f d4 be
       0.5683384 -1.8021352 -0.022957427 -0.41467023
000140 7e 70 8b 3f 31 3a db bf 8c 91 7c bd cb 35 aa 3e
       1.0893705 -1.7127134 -0.06166224 0.33244166
000150 6d 09 67 be af 0b 03 c0 ee c0 b7 bc be b4 95 3e
       -0.2256219 -2.047588 -0.022430863 0.29239458
000160 6d 78 59 3f 31 df d7 bf 46 8b 92 bd e2 85 52 3e
       0.8494938 -1.6864988 -0.071554706 0.20558885
000170 e1 50 ee be 7a 36 1c c0 80 fc bc bd 30 5a 6b 3e
       -0.4654608 -2.440825 -0.09227848 0.22983623
000180 f9 f6 b6 be 2b 58 0d 3f 14 c0 26 3c 30 7f ab 3c
       -0.357353 0.5521266 0.010177631 0.020934671
000190 ee 35 9f 3f c2 bc ba 3f 5c 92 80 bb 98 63 ec 3d
       1.2438333 1.4588854 -0.0039236974 0.115424335
0001a0 04 86 29 bb 70 e9 c3 3e a3 67 82 bd 39 18 22 3d
       -0.0025867233 0.38264036 -0.063674234 0.03957388
0001b0 c9 71 df be 86 72 57 be fd 0f 11 3d c4 51 95 3c
       -0.436415 -0.21039781 0.03541564 0.018227465
0001c0 46 8d df 3e e3 5f b0 3e 44 cd 67 bd d9 16 a8 bd
       0.4366247 0.34448156 -0.05659224 -0.08207483
0001d0 7b cc d3 bf 72 95 b8 bf fe 0d 0a 3d 54 a0 00 3d
       -1.6546777 -1.4420607 0.03370475 0.0314029
0001e0 41 23 67 be 0e ae bd be 73 d7 3e bd 14 2e 3d bb
       -0.22572042 -0.37046856 -0.046592187 -0.0028866576
0001f0 66 93 9e bf 5c 90 bc 3f 75 c6 0c 3d 4e cf a4 bd
       -1.2388732 1.4731555 0.03436895 -0.08047353
000200 ca b7 e3 3c 6f e5 26 3c f9 1f 04 bc 43 75 c1 bd
       0.027797598 0.010186537 -0.0080642635 -0.09446194
000210 7b 34 ec 3e f0 e4 6b be 64 c8 b3 bc f2 58 b0 bd
       0.4613379 -0.23036551 -0.02194614 -0.08610715
000220 5f 25 09 3e c4 22 12 be c6 fe bd bc 0b 26 cb bd
       0.13393162 -0.14271075 -0.023192775 -0.099193655
000230 ee 6d d6 3f 6e df b3 bf 01 06 19 bb 41 37 0d bd
       1.6752298 -1.405256 -0.0023349526 -0.034476522
000240 f9 bd a1 3e b3 04 01 40 8a 98 fa bc 13 a6 48 bf
       0.3159025 2.0159118 -0.030590314 -0.7837841
000250 eb 43 2b 3e ad 83 32 be 8a a1 8a bd 42 95 42 bf
       0.16725127 -0.17433043 -0.067690924 -0.76009
000260 72 8a e6 3e fe f1 2a 40 c8 4c 35 bd b9 69 31 3e
       0.450275 2.67102 -0.044262677 0.17325486
000270 2e ed 26 3f e4 05 72 bc da 9b 74 3c 99 73 76 3d
       0.6520566 -0.014771912 0.014929736 0.060168836
000280 60 28 9b 3f e9 d4 73 40 df 03 77 3b 9b c2 ec bd
       1.2121696 3.80987 0.0037691516 -0.115605555
000290 6b 41 78 3f 04 0a 4f 3f ed be 6a bd 00 ac 8f bd
       0.9697482 0.8087466 -0.057310987 -0.07015228
0002a0 df dc 91 3e 81 50 a3 be c8 ac ca bc 22 dc 86 bd
       0.28488824 -0.31897357 -0.024740592 -0.06584956
0002b0 5b d0 4c be b0 e1 87 be 4e 10 2f 3c e1 15 89 bc
       -0.20001356 -0.26539373 0.01068504 -0.016734065
0002c0 d7 2c e7 3e 95 a4 c0 be b0 0d 72 3d 79 c3 61 3b
       0.45151398 -0.37625566 0.059095085 0.0034448786
0002d0 77 85 26 bf cf e8 a1 3c 0c f3 42 bd fc ac 1f bd
       -0.650474 0.019764332 -0.04759507 -0.03898333
0002e0 25 95 1e 3f 5b df e5 bd de f0 07 bd 9f 87 42 3d
       0.61946326 -0.11224242 -0.033188693 0.04749262
0002f0 da c7 70 bf bd b8 49 3f 3a 89 3c bd 93 91 f5 3c
       -0.9405495 0.78797513 -0.046029307 0.029976642
000300 cd 58 e2 be 7b c3 f6 bf 49 db e6 3c 4a c3 11 3e
       -0.44208375 -1.9278406 0.028180735 0.14234653
000310 f7 bd 80 3e 8e 86 03 3c 9a ca 38 bd 0f 7e f0 3d
       0.25144932 0.008027686 -0.04511509 0.11742794
000320 0a 75 a0 3f cd b3 e4 be 6e 85 2a bd c3 91 81 be
       1.2535717 -0.44668427 -0.041631155 -0.2530652
000330 14 ca 0c bf 51 4a 9a bd 5a 1d ec bc 7c 15 28 be
       -0.54995847 -0.07533706 -0.02882259 -0.16414446
000340 48 0d 08 40 6c 12 6a bf 75 c6 31 bc a4 f1 fa bd
       2.1258106 -0.9143436 -0.0108505385 -0.122531205
000350 7f fe 78 bf ea 8a e7 3f 49 6f 08 3d 0c 40 ed bd
       -0.9726333 1.8089268 0.033309255 -0.115844816
000360 ab 5a b5 be 1a 2a 83 bf 34 cb 08 3c 50 c6 8d bd
       -0.35420737 -1.0247223 0.008349229 -0.06922591
000370 82 5d 8b be 99 8f 94 3d 64 91 48 3c bc 4c 60 bd
       -0.27219778 0.072539516 0.012241695 -0.05476068
000380 35 fc 7f bd 54 47 1d 3f 5e 52 81 bd 3c 82 35 be
       -0.062496383 0.61436963 -0.063145384 -0.17725462
000390 ae 8c 22 3f a7 2d 24 be cc 72 f3 3c ad a8 a1 bd
       0.6349591 -0.1603304 0.029717825 -0.078935005
0003a0 8e 0b cb 3e b1 15 09 3f 07 e5 27 bd 8d 47 d0 bc
       0.39657253 0.53548723 -0.040989902 -0.025424743
0003b0 36 a8 7e 3f 96 06 df 3f 93 17 9a 3c 99 1c ab bd
       0.9947542 1.7423885 0.01881007 -0.08355064
0003c0 dc ff d3 3e b7 f0 31 bf ca a7 84 bc 19 c8 ea 3e
       0.41406143 -0.69507927 -0.01619329 0.45855787
0003d0 f4 3b ed 3e 65 a8 28 be 04 a4 5d bb 92 4c 02 3f
       0.46334803 -0.16470487 -0.0033819685 0.5089809
0003e0 a5 02 14 3e 30 20 7f bf ff 22 45 bd ba d5 65 3f
       0.14454134 -0.9965849 -0.048129078 0.89779246
0003f0 78 46 07 3e 86 c5 a8 be 9d ea 05 bd 0e e0 6d 3f
       0.13210475 -0.32963198 -0.032694448 0.92920005

fcs1.bias f4 [256]
000000 44 5b 13 c0 4e 8c 92 bf 05 c7 2c c0 0f 95 7a c0
       -2.3024454 -1.1449068 -2.6996472 -3.9153478
000010 5c 65 4c c0 c9 dc c3 bf 62 1f 2c c0 51 a8 bd bf
       -3.1936865 -1.5301753 -2.6894155 -1.4816991
000020 18 e5 ca bf 37 cf da bf 39 e1 d9 bf 2d 7f 7c c0
       -1.5851164 -1.7094487 -1.7021858 -3.9452622
000030 da 5f aa bf 1f 67 4d bf 4e d5 79 bf 74 f1 c3 bd
       -1.3310502 -0.80235475 -0.975911 -0.09567538
000040 a4 21 b7 bf c1 c5 a2 bf e0 0b 3d 3e de a5 8b bf
       -1.4307141 -1.27166 0.18461561 -1.0909994
000050 27 d9 5f c0 c3 61 4f bf 88 c3 cf be 19 73 d7 bf
       -3.497629 -0.8100855 -0.40578866 -1.6832
000060 a3 9f 06 c0 5b 6b 98 bf 70 d7 c7 bf b7 96 94 bf
       -2.1034935 -1.1907762 -1.5612621 -1.1608495
000070 4b f4 83 bf c6 ef c5 bf 55 fd 1b c0 fe 5e 85 bf
       -1.0308927 -1.5463798 -2.4373372 -1.0419614
000080 91 12 c4 bf 2f dc 2d c0 27 8f 6d bf 1f 53 14 c0
       -1.5318166 -2.716564 -0.9279656 -2.3175733
000090 35 8f 1d 40 b7 f0 03 bf e0 46 ef bf 63 49 9a bf
       2.4618657 -0.51539177 -1.8693504 -1.2053646
0000a0 1a fa 8e 3e 3b 15 ed be 07 36 27 3e e2 6e ce bf
       0.27925187 -0.4630526 0.16329204 -1.6127589
0000b0 7f a7 aa bf fd f4 1f c0 a6 59 17 c0 2a f8 fc bf
       -1.3332366 -2.499328 -2.3648467 -1.9763234
0000c0 7c db 04 c0 42 b4 6c c0 98 bc e1 be d4 56 78 bf
       -2.0758963 -3.698502 -0.44089198 -0.9700749
0000d0 eb ed d9 bf a4 a0 ab 3e e3 c8 20 bf d7 a0 4c 3d
       -1.7025732 0.33520997 -0.6280653 0.049958076
0000e0 50 a4 03 c0 c2 d0 2a c0 41 29 26 bf 03 ca 71 3f
       -2.0569038 -2.6689916 -0.649067 0.9444887
0000f0 65 42 b4 bf 79 b6 05 c0 cc 99 72 bf 60 d0 b0 bf
       -1.4082762 -2.0892622 -0.94765925 -1.3813591
000100 9b 49 9a bf f2 72 42 3f ab db f3 3d df 20 c1 bf
       -1.2053713 0.7595664 0.11907133 -1.5088156
000110 cf c4 a9 bf 77 c9 fd be b7 aa 84 bf 29 48 02 bf
       -1.3263186 -0.49567768 -1.0364598 -0.5089136
000120 3a fa 6b bf b3 f2 11 c0 ac 3e 18 c0 01 51 0d c0
       -0.9217869 -2.2804382 -2.3788252 -2.208069
000130 d1 a2 8b be 93 95 00 bd 99 3d f6 3f 5c 78 e3 3d
       -0.27272657 -0.031392645 1.9237548 0.11106941
000140 60 33 eb bf 04 54 a9 bf 9e ad 12 c0 a9 7c 42 bf
       -1.8375053 -1.3228765 -2.2918468 -0.75971466
000150 23 01 2a bf 80 3e 17 3f 9f 18 4c be 9c 6d a6 bf
       -0.66407984 0.5907974 -0.19931267 -1.30022
000160 0b 4c f9 bf c3 7f ee bf cc 42 c4 bf 53 e9 5c bf
       -1.9476331 -1.863274 -1.5332885 -0.86293525
000170 1f 00 88 bf e2 dd aa bf 9d b1 d6 bf b0 84 a2 bf
       -1.0625037 -1.3348963 -1.6772953 -1.2696743
000180 17 e0 56 c0 14 4d 59 c0 ee b8 1c be 37 56 93 bf
       -3.3574274 -3.3953295 -0.1530492 -1.1510686
000190 08 69 29 c0 f4 97 0d c0 a9 ed 0b c0 c1 41 d4 bf
       -2.6470356 -2.2123995 -2.1863806 -1.6582566
0001a0 1a 66 32 c0 2e 68 0a c0 77 cb 2b be b7 29 6c bf
       -2.7874818 -2.1626086 -0.16776834 -0.9225115
0001b0 a9 05 c4 bf 78 d5 01 bf 12 07 6d be 16 53 84 c0
       -1.5314227 -0.5071635 -0.23147228 -4.1351423
0001c0 0a 13 f4 3e 20 83 74 40 7e 86 a5 bf e9 4c b2 bf
       0.47670776 3.8205032 -1.2931669 -1.3929721
0001d0 85 12 01 c0 13 17 87 be 4e 83 ca bf b4 8e 5b bf
       -2.0167553 -0.26384792 -1.5821321 -0.8576462
0001e0 62 21 63 3f 41 d1 10 c0 d9 dc 27 bf 80 4e 24 c0
       0.88722813 -2.2627718 -0.6557136 -2.5672913
0001f0 1a 16 91 bf ae 01 da be 64 8a 91 bf ef 68 a9 bf
       -1.133487 -0.42579406 -1.1370358 -1.3235148
000200 9b 2c 28 3f d2 4c f2 bf c0 c4 99 bf 42 0e ad bf
       0.6569306 -1.8929694 -1.2013168 -1.3519976
000210 de 0e b5 bf b1 c2 02 c0 30 c5 b8 bf 8c 6e f5 bf
       -1.4145162 -2.043133 -1.4435177 -1.9174361
000220 1a ac 66 bf e4 51 1c c0 48 f1 20 bf b4 38 07 c0
       -0.90106356 -2.4424982 -0.62868166 -2.112836
000230 c6 c0 2a 3f 12 c1 8a bf 15 24 9c bf e2 da 57 bf
       0.667004 -1.084017 -1.2198511 -0.84318364
000240 26 12 95 bf f7 97 7c bf a2 b3 18 c0 92 27 55 bf
       -1.1646163 -0.9866938 -2.385964 -0.83263505
000250 c7 16 5d 3d 07 63 aa bf 9e 78 06 c0 00 99 c3 be
       0.0539768 -1.3311471 -2.101112 -0.38202667
000260 60 67 f1 bf 87 81 19 c0 2a da c7 bf 9d 8a 23 c0
       -1.8859673 -2.3985307 -1.5613453 -2.5553353
000270 7d 19 c7 bf b2 0d 8f bf 40 03 d9 bf be be ba bf
       -1.5554653 -1.1176054 -1.6954117 -1.458946
000280 f0 20 67 bf 5a 2b 2e bf bd ad 82 bf 73 25 f3 bf
       -0.90284634 -0.680349 -1.0209271 -1.8995804
000290 65 08 29 c0 d4 9c c3 be f3 45 dd bf 48 8e 89 bf
       -2.6411374 -0.38205588 -1.7286972 -1.0746546
0002a0 e9 e8 b1 bf f9 90 a4 3f 38 cf 76 be 53 66 16 c0
       -1.3899204 1.2856742 -0.24102485 -2.3499954
0002b0 fe 6c 03 c0 2f 12 03 c0 d3 1e dd bf 79 e9 06 bf
       -2.0535274 -2.0479848 -1.7275032 -0.527
0002c0 f7 78 6d c0 bb 5a e6 bf ad 37 8f bf 26 1c 8a 3f
       -3.710508 -1.7996439 -1.1188866 1.078984
0002d0 c1 55 b4 bf 16 f0 6a c0 4b 85 80 c0 4f 35 0d c0
       -1.408867 -3.6709037 -4.016271 -2.2063787
0002e0 65 35 ea bf 75 c6 d6 bf dd 72 ac bf ca b0 e4 bb
       -1.8297545 -1.6779314 -1.3472553 -0.0069790827
0002f0 56 57 13 c0 0e 03 d8 bf fc 7f 18 c0 ea 62 84 bf
       -2.3022056 -1.6875932 -2.3828115 -1.0342686
000300 52 0c 6f c0 3c af 1a 3f 88 da 0b c0 46 d2 b2 bf
       -3.735127 0.60423636 -2.185213 -1.397042
000310 d4 56 2b c0 11 07 40 3f 3f e6 16 c0 11 bb 01 bf
       -2.6771746 0.7501078 -2.357803 -0.50676066
000320 60 09 93 bf d4 95 6b bf 65 4a cb bf d2 9d 15 c0
       -1.1487236 -0.92025495 -1.5882078 -2.3377576
000330 6c 9e 46 c0 7f 39 b1 bf 8c fa 17 c0 f1 1c 35 bf
       -3.1034193 -1.3845671 -2.3746672 -0.70747286
000340 4a 12 e4 3e be b6 4b 40 63 a7 8d bf 8e 68 48 c0
       0.44545203 3.1830287 -1.1066707 -3.1313815
000350 ad 97 f4 bf 6b 06 4c c0 32 8c 14 c0 cb cc ce bf
       -1.9108788 -3.1878917 -2.3210568 -1.6156248
000360 5b bf 1d bf 88 56 07 c0 53 ff 2a c0 8e 50 1c c0
       -0.6162011 -2.1146564 -2.6718338 -2.4424167
000370 a6 00 9b bf ae 77 b1 3c 3d 52 5d 3d 87 42 81 bf
       -1.2109573 0.021663513 0.054033507 -1.0098428
000380 ea 1a 1f c0 bf 1f 0f c0 39 7a 13 c0 75 d6 67 bf
       -2.4860177 -2.2363126 -2.3043349 -0.9056161
000390 fe 0e 90 3e 0a ed d2 bf 89 9f 7f be f6 ff e9 bf
       0.28136438 -1.6478589 -0.24963202 -1.8281238
0003a0 16 48 62 c0 05 31 21 c0 73 3c 09 c0 be b9 a1 bf
       -3.5356498 -2.518617 -2.1443145 -1.2634809
0003b0 1a 7b a5 bf de 29 92 bd 3a 4a d7 3d c8 0f 2c c0
       -1.2928193 -0.07136892 0.105122045 -2.6884632
0003c0 93 ab 1b bf 1a 30 ed bf dd c5 04 c0 82 27 6d 3e
       -0.60808676 -1.8530304 -2.0745766 0.23159602
0003d0 f4 46 18 c0 63 d8 6c c0 e3 16 8d bf a0 aa d7 bf
       -2.3793306 -3.7007072 -1.102261 -1.6848946
0003e0 f5 cc bf bf a5 26 b9 bf 19 1a 11 c0 6c f9 4b c0
       -1.4984423 -1.4464918 -2.2672179 -3.1870985
0003f0 19 42 08 c0 90 61 6e bf 96 c0 59 3e a3 83 85 bf
       -2.1290343 -0.9311762 0.21264872 -1.0430797

fc2.weight f4 [128, 260]
000000 a1 0e f4 3d 78 83 51 be c2 17 86 bc 51 b9 02 be
       0.11916853 -0.20460308 -0.01636875 -0.12766005
000010 7f 6b 48 bd 7f af fb bd 6a 9b 76 bd 88 d4 42 bd
       -0.04893064 -0.122893326 -0.06020681 -0.047565967
000020 e2 d1 10 3e 98 41 90 be ac 16 14 3e 49 1c 36 bd
       0.14142564 -0.28175044 0.14461774 -0.04446057
000030 70 07 94 be d1 43 7f be df 9a 06 be e6 f4 81 3d
       -0.28911924 -0.24928214 -0.13145016 0.06345539
000040 50 19 ef bd fd 09 06 3e c8 84 c3 bd e8 d1 6d bc
       -0.1167475 0.13089748 -0.095468104 -0.014515378
000050 f2 88 37 bd a4 e0 da bd 6b bb f2 3b 7b 7c 7b be
       -0.044808336 -0.10687378 0.007407596 -0.24559204
000060 51 80 48 be 42 2f 9d bd 0c 2f 29 bd 49 83 4c be
       -0.19580199 -0.07675029 -0.041304633 -0.19971956
000070 35 c2 01 bf 7e 9d cb bd ab ad d7 3d 10 62 af bd
       -0.5068696 -0.099421486 0.105311714 -0.08563626
000080 4a dc 7b bd 4b 8c 0b 3c 12 48 21 bb e9 65 e3 bd
       -0.06148938 0.008517335 -0.0024609608 -0.11103422
000090 83 52 ae bd 07 49 e8 bd 6f 86 94 bd 33 04 0a bd
       -0.085118316 -0.11342054 -0.07252204 -0.03369541
0000a0 b9 33 48 bd b8 78 d9 bd d5 03 13 bf 38 df 65 bd
       -0.04887745 -0.106187284 -0.5742772 -0.05612108
0000b0 54 97 b7 be 54 d7 80 be f5 fa c2 b9 a6 07 ef bd
       -0.35857642 -0.25164282 -0.0003718954 -0.11671381
0000c0 15 b0 7d 3d b9 b7 25 be 63 c7 c5 3d 3b 70 8a 3d
       0.061935503 -0.16183366 0.096571706 0.067596875
0000d0 f0 9a 3c be 61 94 cc bd 3e 27 4b be bf 5a 3c bd
       -0.18418479 -0.099892385 -0.19839188 -0.04598498
0000e0 a4 8e 5c be 6f 7b 1d bd a2 64 04 be 9f 92 30 be
       -0.21538788 -0.038447794 -0.12929013 -0.17243432
0000f0 9d a5 58 be 4f b8 26 be 53 b9 99 be f2 ee dd be
       -0.21156926 -0.16281246 -0.30024204 -0.43346363
000100 88 d3 87 bd 01 f6 a4 be 2c 48 8d 3d be f6 11 be
       -0.06632143 -0.32218936 0.06898531 -0.14254281
000110 2d 50 dc be f2 3a 81 be 6a bf 94 be 9b 38 f2 3a
       -0.4302992 -0.25240284 -0.29052287 0.0018480005
000120 69 61 f9 3d bd b2 6b be a9 f4 ac be ea 32 9b be
       0.12176783 -0.23017402 -0.3378041 -0.30312282
000130 03 17 a1 bd 65 83 6d bc 56 35 fb be b2 fd 14 bf
       -0.07865717 -0.014496659 -0.4906413 -0.5819961
000140 a1 ea 43 3d d6 00 e1 bd 57 4c 1a 3d 83 32 fb bd
       0.04783118 -0.109864876 0.03767046 -0.12265494
000150 06 82 a7 be 52 97 2b bd 12 cd 03 be dd 2b 68 bd
       -0.32716388 -0.041892357 -0.12871197 -0.056682456
000160 13 e7 d4 bd 65 d1 41 3c 56 e4 a3 3d f6 a3 d3 3a
       -0.103956364 0.011829709 0.08002536 0.0016146887
000170 47 ef 0c be 32 37 30 bf df e9 99 bd 4a 45 54 bd
       -0.13763152 -0.6883422 -0.075153105 -0.05182389
000180 dc 09 11 bd 25 23 d5 bd 1c fe 51 be d6 e9 9f bd
       -0.035409793 -0.10407094 -0.20507091 -0.078082725
000190 37 d6 6c be dc f4 16 bd d3 09 1d bd 2e 03 0f be
       -0.23128591 -0.03685461 -0.038339447 -0.13966057
0001a0 75 1e 30 be 78 22 3c bd 9f 42 09 bf 86 ee 86 be
       -0.17199118 -0.04593131 -0.5361728 -0.26353854
0001b0 b3 bb 1d be e1 a6 fc bd b6 d7 ea be 12 77 1d be
       -0.15403633 -0.12336517 -0.458677 -0.15377453
0001c0 cb f0 b0 be f4 76 70 be fc 51 83 bd f5 4e 05 be
       -0.3455871 -0.23482877 -0.06412122 -0.13018401
0001d0 bd e2 8e 3c 05 1a 79 3e 71 a4 87 bd f3 92 aa be
       0.017442102 0.24326332 -0.066231616 -0.33315238
0001e0 da ef 0b be 60 e6 e3 bd 83 70 ca 3b 2e 50 a8 be
       -0.13665715 -0.11127925 0.006177963 -0.32873672
0001f0 0c 87 98 be ae fd cb 3d 82 ec 27 be 54 0b a9 3d
       -0.29790533 0.09960495 -0.16398814 0.08254114
000200 a5 0d 24 be 42 46 18 be f8 98 8d be be 18 50 be
       -0.1602083 -0.14870551 -0.27655768 -0.20321938
000210 fc 70 5a bd 44 4d 08 bd 63 49 d8 bc 4c df 69 bd
       -0.053330407 -0.03327681 -0.026402181 -0.057097718
000220 bd 6b e8 be f4 7a ca bb 89 57 0c 3e 66 b4 84 bd
       -0.45394698 -0.006179208 0.13705267 -0.06479721
000230 c5 db be bc ac c4 ff bd cd d8 26 be 3f c1 8c 3d
       -0.023298154 -0.12488684 -0.1629364 0.06872796
000240 8b 0f b0 bd 72 98 bd bd 81 c6 bb bc ea f9 60 be
       -0.085967146 -0.09257592 -0.022921802 -0.21970335
000250 5e 5b 8a bb 53 fa 35 be 52 89 2b be 2c 28 ce be
       -0.0042223176 -0.17771272 -0.16751602 -0.40265024
000260 de db 0a 3c 16 6f 1e be d5 1b 4e be 12 41 af bd
       0.008475272 -0.15472063 -0.20127805 -0.08557333
000270 d5 72 04 39 49 d0 b0 be 33 75 00 bc 5d d5 d4 bd
       0.00012631279 -0.3453391 -0.0078404425 -0.10392258
000280 70 23 51 bd b8 8c fb bd 3e 34 4b be 15 e4 1c be
       -0.051059186 -0.12282699 -0.19844148 -0.15321381
000290 7e 25 0f bd 49 9f dc be c2 cc 84 be ec 47 b0 3d
       -0.034947865 -0.43090275 -0.25937468 0.08607468
0002a0 c3 ea 05 bc b1 01 a1 be 46 24 f6 be 4b 26 aa bd
       -0.008173647 -0.31446603 -0.4807455 -0.08308085
0002b0 16 78 de bd f6 fd a2 bd 18 76 52 be 27 2a e5 be
       -0.10862748 -0.079585955 -0.20552862 -0.44758722
0002c0 ee 83 b2 bc b5 68 27 be 93 45 03 bf ca ea b9 3d
       -0.021791425 -0.16348536 -0.51278037 0.090779856
0002d0 b2 1e 98 be a9 e8 01 3d 09 7c cf bd ee 9f 8b ba
       -0.2971092 0.031716023 -0.1013108 -0.0010652521
0002e0 ec 9b b2 3d 44 ac 2c be f5 77 b6 bd 11 7f 1c bd
       0.08721146 -0.16862589 -0.08909599 -0.038207117
0002f0 f3 38 a7 be 77 76 d2 bd 3f ed ab bd e3 dc ed bc
       -0.32660636 -0.102765016 -0.083948605 -0.029035991
000300 d9 7f 64 3c 0f 17 34 be b1 4a 78 be 51 e6 20 3e
       0.013946497 -0.17586921 -0.24247243 0.15712859
000310 6c c3 6b be 90 61 86 bd ef 2a 00 3d 0c 4d 44 be
       -0.23023766 -0.06561577 0.031290945 -0.19170016
000320 15 c2 1b be a9 47 09 3e 00 fd c2 be 9b 59 11 bd
       -0.15210755 0.13406242 -0.3808365 -0.035485845
000330 2e 20 17 be 31 93 3e be 0f 39 78 be 8f 76 a3 bd
       -0.1475837 -0.18610837 -0.24240516 -0.07981598
000340 c6 5e 71 be 6e 79 2a bc 57 b7 fb bd b8 78 2a be
       -0.2357131 -0.010404928 -0.12290829 -0.16647613
000350 4e 5d 56 bd ad d0 8d be 66 6c 65 be bb 2f 3c be
       -0.052335076 -0.2769827 -0.22404632 -0.18377583
000360 75 e4 17 be 2d fe d7 bd 83 ea 8b be d5 9f 79 bd
       -0.14833243 -0.10546527 -0.27327356 -0.060943443
000370 f6 cc ca bc 9e 98 e7 bd 12 e4 6b bd c0 85 79 bd
       -0.024755936 -0.11308406 -0.05759055 -0.06091857
000380 f2 92 8a bd fe 8f 19 be ad 40 2c be b7 24 a0 3c
       -0.06766309 -0.14996335 -0.16821547 0.019548757
000390 dc 0c e6 be f4 58 a5 be 2e d4 20 be e3 2c 2e bd
       -0.44931686 -0.32294428 -0.1570594 -0.042523276
0003a0 f4 39 fa bc db a3 9a bd 83 00 9e 3d 33 ae 52 be
       -0.030545212 -0.07550784 0.07714941 -0.20574264
0003b0 de b1 f7 bb 0e b7 d5 bc d0 ba 3f be ba e4 70 bd
       -0.007559045 -0.026088264 -0.18723607 -0.05881188
0003c0 ad 82 84 be a4 81 91 bd 6f 99 1e bd 34 3e 2e bf
       -0.25880948 -0.07104805 -0.038720544 -0.68063664
0003d0 20 f2 7a bd 36 cc 71 be a7 25 be be ea be 97 be
       -0.061266065 -0.23613057 -0.371381 -0.29637843
0003e0 9c b6 9a bd 17 dd 03 be cb 06 8f 3d 5d 53 5f be
       -0.07554361 -0.12877308 0.069837175 -0.21809144
0003f0 67 f2 85 bd 8b 2f ba bb bd 0c 04 be 43 79 9a bd
       -0.06540375 -0.005681937 -0.12895484 -0.0754266

fc2.bias f4 [128]
000000 cf b7 13 bf ef a6 05 bf ae 73 4e be ed 67 a6 be
       -0.57702345 -0.52207845 -0.20161316 -0.32501164
000010 79 d8 71 bf e6 2d 1d be 1f e8 d3 bd e9 ba f5 be
       -0.94470936 -0.1534954 -0.10347008 -0.47994164
000020 3f 91 e6 bd a9 49 70 be 6c d9 d7 3b 87 8d 0e 40
       -0.11258172 -0.23465599 0.006587198 2.2273881
000030 e7 d4 02 bf 59 36 ef bd 61 a2 81 be ba 78 38 bf
       -0.51106113 -0.11680288 -0.25319198 -0.72059214
000040 4c ac c4 be 47 cc 4a be 38 0e 11 be 59 ed 1b bf
       -0.38412702 -0.19804488 -0.1416558 -0.6090904
000050 17 b0 6b bf e4 17 49 bf c8 b6 08 bf a0 54 f2 bd
       -0.92065567 -0.7855208 -0.534039 -0.11832547
000060 43 67 e8 bd 49 91 c3 be 46 e4 51 bf 3f fb 00 bf
       -0.113478206 -0.3819678 -0.8198894 -0.5038337
000070 83 64 f7 be 31 ee 1c be 2c 6a 16 be 6d a5 66 bf
       -0.48318872 -0.15325238 -0.14688939 -0.9009617
000080 64 d7 b6 be b5 fa 4e bd e0 f7 2d bf b3 e1 10 bf
       -0.35711205 -0.05053206 -0.6795635 -0.5659439
000090 38 24 1e bf 87 19 cc bd 18 7b 1f be 1b 42 31 bf
       -0.61774015 -0.099658065 -0.155743 -0.69241494
0000a0 8a a9 d8 be d0 66 4d bf 46 bb 08 be 6e ba ad be
       -0.42316848 -0.80235004 -0.13352689 -0.33931297
0000b0 76 a4 09 bf c2 52 50 bf 52 fb 92 bf 6d 30 0d bf
       -0.5376657 -0.8137628 -1.1482947 -0.55152017
0000c0 d0 0e 7e bf c7 27 21 bf 09 8a ca bf 14 86 54 3e
       -0.9924135 -0.6295132 -1.5823375 0.20754272
0000d0 d9 b6 80 3d 31 92 d8 be 11 95 19 bf 77 fa 21 be
       0.062848754 -0.42299035 -0.5999308 -0.15818201
0000e0 f9 12 f5 be 17 1d 87 bf c8 c4 8d be b3 e6 33 bf
       -0.47866037 -1.0555753 -0.27689195 -0.70273894
0000f0 44 d0 e4 be 45 f9 2d bf 21 50 e7 bd 59 57 fc bd
       -0.44690144 -0.6795848 -0.1129458 -0.12321348
000100 9e 50 ab bf a9 f9 54 bf 16 58 8a be 03 d3 a7 be
       -1.3383977 -0.8319345 -0.2702033 -0.32778177
000110 1b bf 36 be 9a 61 0a be 2c 99 48 bf c9 fe 04 bf
       -0.17846338 -0.13513795 -0.7835872 -0.5195127
000120 56 4e 98 be fd 4a 36 bf 53 6f 7e be 0b 6b 5c be
       -0.29747266 -0.71208173 -0.24847154 -0.21525209
000130 72 86 18 be bf 3f 16 be e7 70 37 bf 78 2c 5f be
       -0.14895037 -0.14672755 -0.7165665 -0.21794307
000140 a1 bd 94 bf d6 99 47 bf 6c 7e 54 3f 51 fc 20 be
       -1.162037 -0.7796911 0.83005404 -0.15721251
000150 61 84 d1 3a c6 5a a5 bb fa 92 55 be 43 95 d7 be
       0.0015984887 -0.0050462214 -0.20856848 -0.42106065
000160 9a 4d 83 be a3 fd ef 3f 57 03 2c be f5 1d 54 bf
       -0.25645143 1.8749279 -0.16798149 -0.8285821
000170 c3 62 c6 be 2b 73 43 be f1 23 05 bf 34 6c 55 bf
       -0.38747224 -0.19086902 -0.5200797 -0.8336823
000180 ce 61 4e bf 64 ed 3e be ed cc 0f bf 2d 18 89 3e
       -0.8061799 -0.18645245 -0.56172067 0.26776257
000190 bd 79 1a be 86 2c 07 be 88 54 54 bf 33 3e e5 be
       -0.15085502 -0.13200578 -0.82941484 -0.44774017
0001a0 bf b7 f5 be 3b f5 0c 40 f1 11 23 be b4 ef 18 be
       -0.4799175 2.2024677 -0.15924813 -0.1493519
0001b0 77 bd 14 c0 18 95 d1 bd 60 a7 a3 3d 23 5b 15 3f
       -2.324064 -0.102335155 0.079909086 0.5834219
0001c0 5a 3d 12 bf fa 57 46 be f3 8d 0d bf 5c 55 86 bf
       -0.57124865 -0.19369498 -0.5529472 -1.04948
0001d0 a1 6e 39 bf 5e f1 50 bf 7b 48 5e bf 4f e8 f8 be
       -0.7243443 -0.816183 -0.86829346 -0.48614737
0001e0 6a fe 32 be 31 e6 8e be 24 26 18 be 03 12 58 bf
       -0.17479864 -0.27909997 -0.148583 -0.84402484
0001f0 9d b5 e3 be 65 b3 11 bf 56 2e bc be d5 0a 99 be
       -0.44474497 -0.5691436 -0.36754102 -0.29891077

fc3.weight f4 [1, 128]
000000 c4 95 54 3c f2 8b 93 3c 3a 37 2a 3c 71 ec 9c bc
       0.01297516 0.018011067 0.010389144 -0.019155713
000010 e7 4e 28 bc 32 06 db 3a 5f 44 a8 bc d4 42 c2 ba
       -0.010272718 0.001671022 -0.020540414 -0.0014820942
000020 91 88 b5 ba 5d 9a 65 3c 91 03 ae 3c a5 73 98 bb
       -0.0013849904 0.014013854 0.021241935 -0.004652458
000030 31 38 d9 bc 56 72 90 bc ee e9 61 3c 7b 03 96 bb
       -0.026516052 -0.017632645 0.013788683 -0.0045780516
000040 05 a6 1b bc 20 20 30 bc 6d de 5a 3c fc 7a f7 3c
       -0.009500031 -0.010749847 0.0133586945 0.03021001
000050 d8 f1 0d bc 87 45 7b bc a5 0b 29 3c 64 e2 0b bc
       -0.008663617 -0.015336401 0.010317718 -0.008537862
000060 de 9e cd bc 65 03 ce bc cb f4 fb bc 12 54 da bc
       -0.025100168 -0.025148103 -0.030756375 -0.026651416
000070 3b a2 75 3c 48 0e 20 3c 7c 09 1d 3a 1e 3c b7 bc
       0.014992292 0.00976903 0.0005990488 -0.022367533
000080 1b ea b5 3c 9b 74 3b 3c 27 a6 25 38 26 2b d2 bb
       0.022206357 0.011441375 3.9493807e-05 -0.006413835
000090 ae 70 a5 bc e7 c7 9f bc a2 7d 7b bc ea 1f dd 3b
       -0.020195331 -0.0195045 -0.015349777 0.006748189
0000a0 53 8a 62 bc 5e a9 1f 39 85 f5 12 3c f9 14 d3 3c
       -0.013826924 0.00015226516 0.008969669 0.025766836
0000b0 70 4f 3b 3c 5a 98 88 bb 18 33 05 ba 7e 3a 77 3c
       0.011432514 -0.0041685523 -0.0005081161 0.015089629
0000c0 89 5a 91 3c 15 79 9a bc 42 2c 09 bc 57 1b 01 bc
       0.017743366 -0.018856565 -0.008372368 -0.0078800535
0000d0 ed f1 98 bc 9f 7c 8c bc 7b 39 f6 3b dc 97 29 3a
       -0.018670047 -0.017149268 0.0075141764 0.0006469467
0000e0 ec b7 b0 b9 7d b1 e1 3c d1 1b 33 bb fe 64 41 bc
       -0.00033706368 0.027550453 -0.0027329812 -0.011803864
0000f0 5e d7 ef bc d6 07 97 3c 8f 8f ef bc 88 a0 18 b8
       -0.0292775 0.018436354 -0.029243259 -3.638913e-05
000100 9d 5d 83 bc bb 53 fa 3c b7 f7 d6 39 fd b8 56 bc
       -0.01603585 0.030557504 0.00041001823 -0.013105628
000110 f2 f3 cb 3b 92 04 9c bb 42 02 e1 3b 55 dc 40 3c
       0.006224149 -0.004761287 0.006866724 0.011771281
000120 c6 8a 43 bc 63 49 ad 3b fb 5c c8 3b 02 39 2e 3b
       -0.011934942 0.0052882894 0.0061145998 0.0026584272
000130 6a 35 c7 bb 6b 1c b3 bc 1e 23 33 bc 14 58 fa 3b
       -0.0060793655 -0.021864137 -0.010933666 0.0076398943
000140 b4 02 bd 3c a1 74 17 3c c9 ff bf bb 3c 5d 6c 3b
       0.023072578 0.009244115 -0.0058593494 0.0036066314
000150 18 cd 2a 3c 2b a9 e5 3c d6 03 12 bc 1f 1e 97 3c
       0.010424875 0.028034767 -0.008912047 0.01844698
000160 c0 97 3c bc 9d 8f fa bb 71 98 9c 3c 6c a0 42 3b
       -0.011510789 -0.0076465146 0.019115658 0.002969767
000170 5d e5 ce 3a 7e 7d 12 3a 17 1b 4e bc a1 df e4 bb
       0.0015784908 0.0005588158 -0.012579701 -0.0069846665
000180 42 64 e6 3b 43 0d 07 3b 8f 01 94 3c 74 28 aa bb
       0.0070309946 0.002060727 0.01806715 -0.0051928107
000190 30 ae 40 bc da f2 91 bb 12 f7 fe bb 1c 77 3f 3c
       -0.01176028 -0.004453999 -0.007780918 0.011686113
0001a0 25 bf 76 bc 60 da 89 bb c2 30 ec 3c 01 3c 89 bc
       -0.015060221 -0.0042069405 0.028831843 -0.016752245
0001b0 7b b2 03 bc 7c b6 c8 bb dd ef 9e 3b 8b 6b 59 3b
       -0.0080381585 -0.0061252695 0.0048503713 0.0033175673
0001c0 90 a8 df bc c8 bf c0 bc 08 d1 c5 3c 88 00 4a 3c
       -0.027302057 -0.023528948 0.024147525 0.012329228
0001d0 e1 56 ef bc 28 34 22 3b 83 24 26 bc f6 9c a0 3a
       -0.029216232 0.0024750326 -0.010140541 0.0012253809
0001e0 f5 56 66 3c 19 2e 64 bc 50 77 9c bc 00 ca f5 bb
       0.014058818 -0.013927006 -0.019099861 -0.007500887
0001f0 5c a0 80 bc f3 f9 a8 3c 82 6e 54 3a 6e b7 be bb
       -0.015701465 0.020626998 0.0008103625 -0.0058202064
